assignment3/checkpoints/7020.ckpt (torch, 332655 bytes, 16 tensors)

conv_layers.0.weight f4 [8, 3, 5, 5]
0	0x3be27394	0.0069107506
1	0x3de23374	0.1104497
2	0xbd4717cb	-0.048606675
3	0xbe06b405	-0.1315461
4	0xbe0b0446	-0.13575849
5	0x3dafaf4c	0.08578357
6	0x3d315cc7	0.04330137
7	0x3d6aa098	0.05728206
8	0xbe390c54	-0.18071109
9	0xbd9bcc9f	-0.07607388
10	0xbdf76f51	-0.12081779
11	0xbe795678	-0.24349391
12	0xbeb11be3	-0.34591588
13	0xbe9fda87	-0.3122141
14	0xbde47613	-0.11155333
15	0xbd81f3aa	-0.06345303
16	0xbd3684fd	-0.04456042
17	0x3e0ceb3f	0.13761614
18	0xbcb2ca74	-0.021825053
19	0x3d0dbb48	0.034602433
20	0xbc7c2194	-0.015388865
21	0x3e1930b1	0.1495998
22	0x3e445495	0.1917289
23	0x3e1dc8c7	0.15408622
24	0xbbb73f21	-0.0055922423
25	0xbd95b2a0	-0.07309461
26	0x3decbe18	0.11559695
27	0xbcf339ca	-0.029690642
28	0xbd8b0094	-0.0678722
29	0xbdab993b	-0.08378836
30	0xbd65fffb	-0.056152325
31	0x3e019c11	0.12657191
32	0xbd7baf64	-0.061446562
33	0xbe2e4760	-0.17019415
34	0xbe2a4769	-0.16628803
35	0xbe78a1a9	-0.24280418
36	0xbe9aa76b	-0.30205855
37	0xbda3aa6d	-0.079914905
38	0xbe0b24e5	-0.13588293
39	0xbbba0b73	-0.0056776344
40	0xbe032948	-0.12808716
41	0xbe3be41f	-0.1834874
42	0x3ddc7ffc	0.107665986
43	0xbd453f69	-0.048156176
44	0xbce8d163	-0.028420156
45	0xbe3009ae	-0.17191193
46	0x3dc46721	0.09589983
47	0x3e8cb6ad	0.2748312
48	0xbc21ed94	-0.009883303
49	0xbcd95791	-0.026531013
50	0x3d019e86	0.03164532
51	0x3e664fa8	0.22491324
52	0x3e7ad02b	0.24493472
53	0x3e1a4f05	0.15069206
54	0x3e21330c	0.15742129
55	0xbcafeee9	-0.021476226
56	0x3e3cac00	0.18424988
57	0x3db61036	0.08889811
58	0xbcf8f9c5	-0.030392537
59	0x3bebb2ab	0.0071929297
60	0xbd286221	-0.041109208
61	0xbd7f29f6	-0.062295876
62	0xbdd4b4ce	-0.10386048
63	0xbcaffec5	-0.021483788
64	0x3de3e881	0.11128331
65	0xbe2c007c	-0.1679706
66	0xbd9c5f3a	-0.076353505
67	0x3e2f0d70	0.1709497
68	0x3e360894	0.1777671
69	0x3e4ff336	0.20307621
70	0xbe8a390f	-0.26996657
71	0xbd4f00fd	-0.050538052
72	0x3e7ac74f	0.24490093
73	0x3e114dad	0.14189787
74	0x3dab1e2f	0.083553664
75	0x3dbbc454	0.09168306
76	0xbb88697d	-0.004162966
77	0xbc98467c	-0.018588297
78	0x3e42fc53	0.19041567
79	0x3ce19634	0.027537443
80	0xbe286e57	-0.16448341
81	0xbdc04314	-0.09387794
82	0xbe4b038f	-0.19825576
83	0xbe8dfd39	-0.27732256
84	0x3db23a0a	0.08702476
85	0xbd8709a2	-0.06593634
86	0x3d442736	0.047888957
87	0x3d69f65c	0.057119712
88	0xbd4c877f	-0.049933907
89	0x3d75651a	0.05991087
90	0xbd59d8f4	-0.05318542
91	0x3e3d604a	0.18493763
92	0x3ec73fd1	0.38915876
93	0xbe17ec6f	-0.14836286
94	0xbe34586e	-0.17611858
95	0xbe177cb0	-0.14793658
96	0xbda66f6c	-0.08126721
97	0x3dc8833c	0.09790656
98	0xbe9f3e57	-0.3110225
99	0xbd37165c	-0.044699058
100	0x3dda0c13	0.10646834
101	0x3dd4adde	0.10384725
102	0xbb9ce3c0	-0.004787892
103	0xbd1ba12f	-0.037995514
104	0xbe5cc4e4	-0.21559483
105	0x3ceda127	0.029007507
106	0xbdeeff4a	-0.11669786
107	0xbe851b86	-0.2599756
108	0xbe57a9b5	-0.21060832
109	0x38571a79	5.128465e-05
110	0xbcda26bb	-0.026629796
111	0x3e92e7af	0.28692386
112	0x3e44e0b5	0.19226344
113	0x3d185a64	0.03719558
114	0x3e330cfe	0.17485425
115	0xbda20652	-0.07911362
116	0x3e8669c8	0.2625258
117	0x3ef2a9ba	0.47395116
118	0xbdffe5cc	-0.12495002
119	0xbd821f12	-0.063535824
120	0x3e067635	0.1313103
121	0x3d1a936c	0.03773825
122	0x3e23c13a	0.15991679
123	0xbe0bbd89	-0.1364652
124	0xbe15c2be	-0.1462507
125	0xbdbbbd61	-0.091669805
126	0xbc927e29	-0.017882423
127	0x3c064a9c	0.008196499
128	0x3cf090b8	0.029365882
129	0xbdd4d667	-0.103924565
130	0xba0110db	-0.0004923471
131	0xbc284037	-0.010269216
132	0xbe7c995f	-0.24667881
133	0xbe558db0	-0.2085483
134	0x3da19787	0.0789023
135	0xbcfe9d87	-0.031080974
136	0x3e2367a2	0.15957502
137	0x3e3bd1d0	0.18341756
138	0xbde41c09	-0.1113816
139	0x3e028587	0.12746249
140	0x3d5dfee1	0.05419815
141	0x3e912c46	0.2835409
142	0x3f0003ff	0.500061
143	0xbe4856ac	-0.19564313
144	0xbe5a833b	-0.21339123
145	0xbd5a67c2	-0.053321607
146	0x3d697596	0.056996904
147	0x3e306ab2	0.17228201
148	0xbe81b0cb	-0.25330195
149	0xbde3228a	-0.11090572
150	0xbb2e70d1	-0.0026617537
151	0x3dcac50e	0.099008664
152	0x3e6bb22c	0.23017186
153	0x3eaafbbd	0.33395186
154	0x3e696298	0.22791517
155	0x3e1a4c69	0.1506821
156	0x3ecd194c	0.40058362
157	0x3e1635d8	0.14668977
158	0x3e3cd867	0.18441926
159	0x3da900bf	0.082520954
160	0x3e821e62	0.25413805
161	0x3eac58d8	0.33661532
162	0x3d3a655c	0.04550682
163	0xbdd89669	-0.105755635
164	0x3c3fac31	0.0116987685
165	0x3e183d0e	0.1486704
166	0x3dde2c06	0.108482406
167	0x3dcf21ce	0.101138696
168	0xbe59453a	-0.21217814
169	0xbcc7f54a	-0.024408955
170	0x3cac9ed0	0.021071821
171	0xbe561172	-0.20905092
172	0x3d6180cc	0.05505447
173	0xbdc3a536	-0.09552996
174	0xbe78d657	-0.24300514
175	0xbded6a78	-0.11592573
176	0xbe406230	-0.18787456
177	0xbe7741b8	-0.24146163
178	0xbd94ed67	-0.072718434
179	0xbe8ecaec	-0.27889192
180	0xbe010d7b	-0.12602799
181	0xbe2a3fea	-0.16625944
182	0xbe43a01e	-0.19104049
183	0xbe7c3f66	-0.2463356
184	0xbe542427	-0.20716916
185	0xb9f4db5e	-0.00046702748
186	0xbd42f6ce	-0.047598653
187	0xbe7f20a0	-0.24914789
188	0xbee525d0	-0.4475541
189	0xbe363e65	-0.17797239
190	0x3e120aab	0.14261882
191	0x3dd2252e	0.10260998
192	0xbe04e43d	-0.12977691
193	0xbe3b9017	-0.18316685
194	0xbe16cfbb	-0.1472768
195	0xbb231c0d	-0.0024888546
196	0xbdf4ccd3	-0.119531296
197	0x3dfa2348	0.122137606
198	0xbd1c2fd7	-0.03813156
199	0x3d2c2c3a	0.042034365
200	0x3da0e101	0.07855416
201	0x3dfed3b1	0.12442721
202	0xbd9606bb	-0.073255025
203	0xbd05be63	-0.03265227
204	0xbd6984c1	-0.05701137
205	0x3e0a0c43	0.1348124
206	0xbca89c4f	-0.020582346
207	0xbd136ae9	-0.03599063
208	0xbdb707b1	-0.08937014
209	0xbdd068da	-0.10176249
210	0x3dec023b	0.11523863
211	0x3ddaa0bb	0.10675188
212	0xbd9714f0	-0.073770404
213	0xbe7cc487	-0.24684344
214	0xbdf3d5c4	-0.11906007
215	0x3e4c14b9	0.1992978
216	0x3dab042b	0.08350404
217	0x3d1ae6f0	0.037817895
218	0x3d2c6214	0.042085722
219	0xbd7f0b9f	-0.062266942
220	0x3e107d27	0.14110242
221	0x3e3bbb19	0.18333091
222	0x3e7db34f	0.24775432
223	0x3e276f04	0.16350943
224	0x3d05afe3	0.03263844
225	0x3e177569	0.14790882
226	0x3e78ed99	0.24309386
227	0x3e9171a7	0.28407022
228	0x3d8a4de8	0.06753141
229	0x3e1783c3	0.14796357
230	0x3d89c34b	0.06726702
231	0x3e885eae	0.26634735
232	0x3e02bc71	0.12767197
233	0x3e845d75	0.25852552
234	0x3e5bf2ba	0.21479312
235	0xbe18c243	-0.14917855
236	0xbd3e8495	-0.04651316
237	0xbe8ca569	-0.27469948
238	0x3e792e3f	0.24334048
239	0x3d477288	0.04869321
240	0x3cffd78c	0.03123071
241	0x3d59cd80	0.053174496
242	0xbebf86b5	-0.3740746
243	0x3ea4bf64	0.3217727
244	0x3d1d502a	0.03840653
245	0xbe7fb91e	-0.2497296
246	0xbc5d5826	-0.013509786
247	0xbf14f2f5	-0.58183223
248	0xbace45cf	-0.0015737357
249	0xbe4defbb	-0.20110981
250	0xbe7365b8	-0.23769271
251	0xbd841eaf	-0.06451165
252	0xbd51b3ea	-0.05119697
253	0xbe5f76e7	-0.21822701
254	0xbdf1b43e	-0.118019566
255	0xbde2e668	-0.11079103

conv_layers.0.bias f4 [8]
0	0xbecb95fb	-0.39762864
1	0x3f043373	0.51641005
2	0xbed4dc0b	-0.4157413
3	0x3f196317	0.59916824
4	0xbe6c1faf	-0.23058961
5	0x3ee51910	0.44745684
6	0x3ea9d376	0.33169144
7	0xbed0d7e0	-0.407897

conv_layers.2.weight f4 [8, 8, 5, 5]
0	0xbceb5d6b	-0.028731069
1	0xbd58946b	-0.052875917
2	0xbe0cca46	-0.13749036
3	0xbe38acaf	-0.18034624
4	0xbcb66776	-0.02226613
5	0xbca1cf74	-0.019752242
6	0x3d0c72eb	0.03428928
7	0x3bfa6bca	0.007642244
8	0xbc330886	-0.010927325
9	0x3c9f036b	0.01941081
10	0x3c964100	0.018341541
11	0xbcdc0b8f	-0.02686098
12	0xbdd746ab	-0.10511526
13	0xbb804b24	-0.0039152075
14	0xbcbc728f	-0.023003845
15	0xbe0094ab	-0.12556712
16	0xbdd74a9c	-0.105122775
17	0xbe11bb32	-0.14231566
18	0xbc98ea64	-0.018666454
19	0xbde0743b	-0.10959669
20	0xbde6c7bf	-0.11268567
21	0xbdd4bf3d	-0.10388038
22	0xbd7ea7f2	-0.062171884
23	0xbd4b5137	-0.049638
24	0xbd78ec58	-0.06077227
25	0x3cbfa581	0.023394348
26	0x3e3338d9	0.17502154
27	0xbdb2af21	-0.087248094
28	0xbbdc6757	-0.0067261863
29	0xbd777b16	-0.06042012
30	0xbd87e77a	-0.066359475
31	0x3e76a798	0.2408737
32	0xbddde4fe	-0.108346924
33	0x3c974d78	0.018469557
34	0x3d12bbe0	0.035823703
35	0xbdb27923	-0.08714511
36	0x3dce7992	0.100817814
37	0x3d799601	0.06093407
38	0xbc1de971	-0.009638176
39	0x3e0a0e6c	0.13482064
40	0xbe5c329e	-0.21503684
41	0xbd1afd38	-0.037839144
42	0x3c0e9be8	0.008704163
43	0xbce5db88	-0.028058782
44	0x3dbcb161	0.0921352
45	0xbd4a9783	-0.0494609
46	0xbd87adc2	-0.066249385
47	0xbd3be698	-0.04587421
48	0x3da94784	0.08265594
49	0x3e0105a5	0.1259981
50	0xbd930072	-0.07177819
51	0x3cb5bfc0	0.02218616
52	0xbe16c832	-0.14724806
53	0xbdd4dde4	-0.10393885
54	0xbd042264	-0.03225936
55	0xbe2196ba	-0.15780154
56	0xbae758fe	-0.0017650423
57	0xbd927aec	-0.07152352
58	0xbe2b1d64	-0.1671043
59	0xbd94c358	-0.07263821
60	0xbe078da3	-0.13237624
61	0x3d45f082	0.04832507
62	0xbe34a8bc	-0.17642492
63	0xbe63a74a	-0.22231784
64	0xbe2bd92c	-0.16782063
65	0xbd7db95b	-0.061944347
66	0xbcb86185	-0.022507438
67	0xbcb64ff8	-0.022254929
68	0xbe2bd502	-0.16780475
69	0xbda2b030	-0.07943761
70	0x3d01cb86	0.031688236
71	0xbd68cc1b	-0.056835275
72	0x3cdf3e8a	0.0272515
73	0xbdb7c0fd	-0.089723565
74	0x3d12c4d5	0.035832245
75	0xbd10d248	-0.03535679
76	0xbd6b6537	-0.057469573
77	0x3e71f5a0	0.23628855
78	0xbd62ce25	-0.055372376
79	0xbbe3d28b	-0.006952589
80	0x3de3c7ed	0.11122117
81	0xbd2ca0e8	-0.04214564
82	0x3e7aa469	0.2447678
83	0xbcaea59a	-0.0213192
84	0x3dd7f6f7	0.10545152
85	0x3e27ef9d	0.16399999
86	0xbd84221b	-0.064518176
87	0xbd38f6c0	-0.045157194
88	0x3d707d65	0.058713336
89	0xbced2efe	-0.028953072
90	0x3dc01665	0.093792714
91	0x3ca085b1	0.019594999
92	0xbdf53cb8	-0.11974472
93	0xbd911f9a	-0.07086106
94	0xbda7b311	-0.08188451
95	0x3d29b915	0.041436274
96	0x3d6b91dd	0.057512153
97	0x3b9c9ced	0.004779449
98	0xbe236385	-0.15955932
99	0x3db0df62	0.08636357
100	0xbd81b37b	-0.06333061
101	0x3c889266	0.01667137
102	0xbd6c4b91	-0.057689253
103	0xbdd8301a	-0.1055605
104	0xbe0998d3	-0.13437204
105	0xbdc31a56	-0.095265076
106	0x3c90327a	0.017602194
107	0xbddfd9cd	-0.10930214
108	0xbe0bed2f	-0.13664697
109	0xbdd83645	-0.10557226
110	0x3d85dce0	0.06536269
111	0x3d7b2649	0.06131581
112	0x3d529b33	0.05141754
113	0xbe038ee5	-0.12847479
114	0xbdca9875	-0.0989236
115	0xbd902b22	-0.07039477
116	0xbda17447	-0.07883506
117	0x3c2976bf	0.010343253
118	0x3d3e7879	0.04650161
119	0xbd6343d9	-0.055484626
120	0x3d767a30	0.06017512
121	0xbd2bd74a	-0.041953363
122	0xbcd9bfff	-0.026580809
123	0x3d7b302c	0.061325237
124	0x3d3aa2bf	0.045565363
125	0x3d94ee3c	0.07272002
126	0xbe2711cc	-0.16315383
127	0x3da7fa80	0.08202076
128	0xbd16ce87	-0.036818054
129	0xbe60588c	-0.21908778
130	0x3e7e86f5	0.2485617
131	0xbdd8ab74	-0.10579577
132	0x3b26b1eb	0.0025435637
133	0x3dcefce1	0.101068266
134	0x3c044699	0.008073472
135	0x3e35954f	0.17732738
136	0x3d933885	0.071885146
137	0x3ddf4740	0.10902262
138	0x3df8cdca	0.12148626
139	0xbc04321d	-0.008068589
140	0x3d1ced6c	0.03831236
141	0x3d301792	0.04299123
142	0xbcb555e7	-0.022135688
143	0xbd61bb8c	-0.0551105
144	0x3e0c15d5	0.13680203
145	0x3b6f662a	0.00365294
146	0x3c48896c	0.012239795
147	0x3e13b571	0.14424683
148	0xbdba4290	-0.09094727
149	0x3db4f527	0.088358216
150	0xbd1abca7	-0.03777757
151	0xbdc6309f	-0.096772425
152	0xbd87e18d	-0.06634817
153	0x3cba8707	0.022769464
154	0x3c88bf24	0.016692705
155	0x3d468e59	0.048475597
156	0xbc3830f1	-0.011242137
157	0xbdee80c1	-0.116456516
158	0xbd452ea9	-0.0481402
159	0x3e02423d	0.1272058
160	0xbe168c0b	-0.1470186
161	0xbded85f9	-0.11597819
162	0xbdcf6f04	-0.101285964
163	0xbe363fbc	-0.1779775
164	0x3c2df86b	0.0106183095
165	0xbd261a86	-0.04055264
166	0xbd1c3442	-0.038135774
167	0xbe0575fe	-0.13033292
168	0xbcc6f15c	-0.024285011
169	0xbd9a7511	-0.0754186
170	0x3b91f33d	0.004454045
171	0xbe14d6c2	-0.14535049
172	0xbe25e089	-0.16198935
173	0xbdc1b452	-0.094582215
174	0xbdbc11cf	-0.09183084
175	0xbd97f918	-0.07420558
176	0xbdf536ab	-0.11973318
177	0xbc635ca2	-0.013877066
178	0xbd12caaf	-0.035837825
179	0xbdfb8d46	-0.12282805
180	0xbd513306	-0.05107405
181	0xbd75e6b3	-0.060034465
182	0x3c1337f9	0.008985513
183	0xbb007023	-0.0019598089
184	0x3c5921fe	0.013252733
185	0x3b659d56	0.0035036406
186	0xbd4a5b3f	-0.049403425
187	0x3d207e01	0.039182667
188	0x3c83112d	0.015999401
189	0xbb31d60c	-0.0027135639
190	0xbc8e70bb	-0.017387738
191	0xbd261b74	-0.040553525
192	0x3d6fc31b	0.058535676
193	0xbcac95f1	-0.021067591
194	0x3d608591	0.05481488
195	0xbd3ee51c	-0.046605214
196	0x3bea0938	0.0071422122
197	0x3d82effa	0.06393428
198	0x3ce0e3a4	0.027452298
199	0xbdb9d1d1	-0.090732224
200	0x3d2609ff	0.040536877
201	0xbc25ebce	-0.010127021
202	0xbdae7c91	-0.08519853
203	0xbdd766a3	-0.10517623
204	0x3d939806	0.072067305
205	0xbdf3ab6c	-0.118979305
206	0xbe1d0b55	-0.15336354
207	0xbe12ea21	-0.14347126
208	0xbdb77cff	-0.08959388
209	0x3d8e2b7d	0.069418885
210	0xbe21dedc	-0.1580767
211	0xbe03805a	-0.12841931
212	0x3de1b535	0.110208906
213	0x3ddd236c	0.10797772
214	0x3db4ea64	0.08833769
215	0xbc7594a8	-0.014989056
216	0x3e016d90	0.12639451
217	0x3e513a35	0.2043236
218	0x3daec4ba	0.08533616
219	0xbcc74998	-0.024327084
220	0x3d4a7c14	0.049434736
221	0x3e2253eb	0.15852325
222	0x3e33d676	0.17562279
223	0xbac30068	-0.001487744
224	0x3d356c48	0.04429272
225	0x3d83a53f	0.064280026
226	0x3ce094e4	0.027414747
227	0x3db541a7	0.08850413
228	0xbe339e41	-0.17540838
229	0xbe70f31d	-0.2353024
230	0x3e3f8ef1	0.18706872
231	0x3b87769c	0.0041340124
232	0xbe1bff3f	-0.15234087
233	0xbe4e104f	-0.20123409
234	0xbde1e6b2	-0.1103033
235	0x3b9d8f69	0.0048083556
236	0xbe4024d2	-0.18764046
237	0xbe16277d	-0.14663501
238	0xbcd63dfa	-0.0261526
239	0x3d3a365d	0.045462
240	0xbd95cbe1	-0.073142774
241	0xbde833f1	-0.11338032
242	0x3d9ce72e	0.076612815
243	0x3e35dec0	0.17760754
244	0x3d0831fb	0.03325079
245	0x3d3d87e7	0.046272185
246	0x3d1ed541	0.038777594
247	0x3b82d2fa	0.0039924355
248	0x3d54c5df	0.051946517
249	0xbc4188c6	-0.0118123945
250	0xba9aa433	-0.0011798203
251	0xbd901850	-0.07035887
252	0x3e472b2d	0.19450064
253	0x3e14ab7d	0.14518543
254	0xbd5842c6	-0.052798055
255	0x3c462a9e	0.012095122

conv_layers.2.bias f4 [8]
0	0x3f48ba29	0.7840906
1	0x3ce740e1	0.028229179
2	0xbc67329d	-0.014111188
3	0x3ef63a62	0.48091418
4	0xbdb8c353	-0.0902163
5	0x3d7dd292	0.061968394
6	0x3e3137bb	0.17306416
7	0x3cc67529	0.024225788

conv_layers.5.weight f4 [16, 8, 5, 5]
0	0xbbfbba95	-0.0076821544
1	0xbe0b5b23	-0.13608985
2	0xbe480ea8	-0.19536841
3	0xbe13b556	-0.14424643
4	0x3c8f8101	0.017517569
5	0xbd8125f9	-0.06306071
6	0xbdaeda3b	-0.08537718
7	0xbde17b33	-0.110098265
8	0xbcff4aa6	-0.031163525
9	0xbd1f3718	-0.0388709
10	0x3d9793b2	0.074012175
11	0xbdb37a4d	-0.087635614
12	0x3c2c6944	0.010523144
13	0xbcaf4da1	-0.021399321
14	0x3d1875b2	0.037221618
15	0x3d4f16f3	0.050558995
16	0x3c330b50	0.01092799
17	0xbd1bb493	-0.038014006
18	0xbd0acc9b	-0.033886533
19	0x3e092693	0.13393621
20	0x3e421f63	0.18957286
21	0x3dd76860	0.10517955
22	0x3db1667b	0.08662125
23	0x3d3a8e91	0.04554612
24	0x3d8337a3	0.06407096
25	0xbde57035	-0.112030424
26	0xbdfc5676	-0.123211786
27	0xbdc3870a	-0.09547241
28	0x3c8d55f8	0.017252907
29	0x3cd02694	0.02540902
30	0xbdb1cfdd	-0.08682225
31	0xbdd480e0	-0.103761435
32	0x3c8a5808	0.01688768
33	0x3dc4de02	0.09612657
34	0x3cba2a94	0.022725381
35	0x3d8af71f	0.06785416
36	0x3ddc36ec	0.10752663
37	0x3e5fa95b	0.21841948
38	0x3de42588	0.11139971
39	0xbd6271c7	-0.055284288
40	0x3d84c424	0.06482723
41	0x3d4e1a05	0.050317783
42	0x3cfc803c	0.030822866
43	0xbc353b97	-0.011061571
44	0xbdde0bce	-0.10842095
45	0xbe0a6f28	-0.13518965
46	0xbc753677	-0.014966599
47	0xbd87e2f0	-0.06635082
48	0xbdcdb0c4	-0.10043481
49	0xbe3effdc	-0.1865229
50	0xbb46b89c	-0.0030322438
51	0x3d17ffc3	0.037109148
52	0xbc9293dd	-0.017892772
53	0xbd12c2d1	-0.035830323
54	0x3d83bf2f	0.0643295
55	0x3c7000d6	0.014648637
56	0xba7bfba3	-0.0009612387
57	0xbca95712	-0.020671401
58	0x3c9c3079	0.019066082
59	0x3da2046c	0.07911
60	0x3bf7054b	0.007538473
61	0xbb575f98	-0.0032863375
62	0x3dba2373	0.09088793
63	0x3deec32b	0.11658319
64	0x3d8798f5	0.06620971
65	0x3d06d5ab	0.032918613
66	0x3d82ebdf	0.06392645
67	0x3d99bf6a	0.075072125
68	0x3d7729f3	0.06034274
69	0xbda9a32b	-0.08283075
70	0xbda41a84	-0.0801287
71	0x3c609d3e	0.013709364
72	0xbd6ec185	-0.058290023
73	0xbd35a260	-0.044344306
74	0xbd059f57	-0.03262266
75	0xbd680889	-0.056648765
76	0xbc482032	-0.012214707
77	0xbdbff2d3	-0.09372487
78	0xbe033cb1	-0.1281612
79	0xbe188668	-0.14895022
80	0xbcb8a183	-0.022537952
81	0xbb9e5121	-0.0048314487
82	0x3c093a82	0.008375766
83	0xbe2b62e1	-0.16736938
84	0xbdf42d81	-0.11922742
85	0xbd998c18	-0.07497424
86	0xbcabdff7	-0.020980818
87	0x3d9a277b	0.075270616
88	0xbdcd353c	-0.10019919
89	0xbdb78f47	-0.08962875
90	0x3d008423	0.031376015
91	0xbd37bd65	-0.044858355
92	0x3d9ef9fc	0.077625245
93	0x3d161d4f	0.036649045
94	0xbc8625a1	-0.016375365
95	0xbc5b0ae4	-0.013369296
96	0xbdde69bc	-0.10860011
97	0x3c05e790	0.008172885
98	0xbb92f342	-0.004484565
99	0xbdc88971	-0.0979184
100	0x3be0c995	0.006859968
101	0xbd398883	-0.045296203
102	0xbdd280a1	-0.1027844
103	0xbdec2d02	-0.11532022
104	0xbde1bb3e	-0.11022042
105	0x3e157b1e	0.14597747
106	0x3df1796a	0.11790736
107	0xbb7468c6	-0.0037293895
108	0xbdcded1d	-0.100549914
109	0xb9a8ab98	-0.00032171304
110	0x3dc82066	0.097718045
111	0x3e4999ba	0.19687548
112	0x3e1bb020	0.15203905
113	0x3dded7e4	0.108810216
114	0x3ce34280	0.02774167
115	0x3dad05ba	0.08448358
116	0x3e012444	0.1261149
117	0x3dacfbce	0.084464654
118	0x3dc8b218	0.09799594
119	0x3d100af5	0.0351667
120	0xbd25b210	-0.040453017
121	0x3c9903e1	0.018678607
122	0xbdcb3f29	-0.09924156
123	0xbe116a42	-0.1420069
124	0xbdd1d2c1	-0.10245276
125	0xbce5353e	-0.02797949
126	0xbd42d872	-0.0475697
127	0xbc8c5bb9	-0.01713358
128	0xbdc3bd2b	-0.09557565
129	0xbd92d8a7	-0.071702294
130	0x3d5821bb	0.052766543
131	0x3b89a1c0	0.0042001903
132	0xbbcc659f	-0.0062377
133	0xbdc3af1d	-0.095548846
134	0xbd14940a	-0.036273994
135	0x3d2d5433	0.042316627
136	0x3da7a953	0.08186593
137	0xbd8a335b	-0.067480765
138	0x3d723b23	0.05913843
139	0x3d657807	0.05602267
140	0x3d252db4	0.04032679
141	0x3dbd3da7	0.09240275
142	0x3da2b243	0.07944157
143	0x3e2be0c0	0.16784954
144	0x3d9db860	0.07701182
145	0xbdf0e2c4	-0.11762002
146	0xbbf017d2	-0.0073270584
147	0xbe09ee85	-0.13469894
148	0xbdb0c398	-0.086310565
149	0xbda86a22	-0.08223368
150	0xbd371e59	-0.044706676
151	0xbd941807	-0.07231145
152	0xbc8f9211	-0.017525705
153	0xbe011232	-0.12604597
154	0xbe68b197	-0.22723995
155	0x3cf54036	0.029937845
156	0x3dbf5090	0.09341538
157	0x3ddadd87	0.10686784
158	0x3c2f168a	0.010686526
159	0xbd47e83a	-0.048805453
160	0x3c93519a	0.017983247
161	0x3c492848	0.01227767
162	0x3e892a2e	0.26789993
163	0x3e0ab4e1	0.13545562
164	0x3bd80e3b	0.0065934933
165	0xbbe0c51e	-0.0068594357
166	0xbcde5c0f	-0.027143506
167	0x3ddbad53	0.10726418
168	0x3d937fae	0.07202087
169	0xbdd67087	-0.10470682
170	0xbaf3ca73	-0.0018599763
171	0xbdd6ac2f	-0.1048206
172	0x3d9968ba	0.07490678
173	0x3d92e74b	0.07173022
174	0xbb517983	-0.0031963296
175	0xbdeb1a98	-0.11479682
176	0xbe44536b	-0.19172446
177	0xbde7da73	-0.11320963
178	0xbdd66230	-0.104679465
179	0xbdc103df	-0.094245665
180	0xbd042279	-0.03225944
181	0xbcd6c037	-0.026214702
182	0xbde44f41	-0.11147929
183	0xbdeda275	-0.11603252
184	0x3d0dff82	0.0346675
185	0x3b2e70e8	0.002661759
186	0xbc43ca4a	-0.011950085
187	0x3d68bdfb	0.056821804
188	0xbcfaa6e9	-0.030597167
189	0xbd700492	-0.05859811
190	0xbc4a3f10	-0.012344137
191	0x3c9db051	0.019249113
192	0x3d5ab862	0.053398497
193	0x3d42b812	0.047538824
194	0xbd74f98d	-0.059808303
195	0x3dd515a1	0.10404516
196	0x3d08066d	0.033209253
197	0x3c140e76	0.009036651
198	0x3c2a0d23	0.010379109
199	0xbe03e352	-0.12879685
200	0xbdfbbd96	-0.1229202
201	0xbde10f49	-0.109892435
202	0xbe345f6e	-0.17614529
203	0x3d522159	0.051301334
204	0x3b95031a	0.004547489
205	0xbde80b65	-0.11330298
206	0xbe34e468	-0.17665255
207	0xbd866a5c	-0.06563255
208	0x3dc3c42f	0.095589034
209	0x3d3b8c7c	0.045788273
210	0xbdafbc41	-0.085808285
211	0xbde75c89	-0.112969466
212	0xbd00cd52	-0.03144581
213	0x3dce3c23	0.10070064
214	0x3e1e7574	0.15474492
215	0xbd8f1c82	-0.06987859
216	0xbd6d888a	-0.057991542
217	0x3cf65036	0.030067544
218	0x3e15f5dd	0.1464457
219	0x3e2d481a	0.16922036
220	0xbc509c7e	-0.012732623
221	0xbd460df0	-0.048353136
222	0xbba94ec3	-0.00516686
223	0x3da1482e	0.07875095
224	0x3dc0f629	0.09421951
225	0x3dc05819	0.09391803
226	0x3cb940b1	0.022613855
227	0xbe26587a	-0.16244689
228	0xbe33390e	-0.17502233
229	0xbdbcf447	-0.0922628
230	0x3db49167	0.08816796
231	0x3d46364d	0.04839163
232	0xbd689666	-0.056784056
233	0xbd767f62	-0.060180075
234	0xbdeff33a	-0.11716314
235	0x3e0faf32	0.14031675
236	0x3da4a47c	0.080391854
237	0x3e370dcb	0.17876355
238	0x3e2a8c51	0.16655089
239	0xbd63817d	-0.05554341
240	0xbcdad3c4	-0.026712306
241	0x3bc78efe	0.006090044
242	0x3e57a675	0.21059592
243	0x3dcc1c95	0.09966389
244	0x3d8c1ad6	0.06841056
245	0xbd778777	-0.060431924
246	0x3b721049	0.0036935976
247	0x3cb76d20	0.022390902
248	0x3ddaa468	0.10675889
249	0x3d6489b1	0.055795375
250	0x3cb176ff	0.021663187
251	0x3cfca14e	0.030838635
252	0xbce33b1d	-0.027738148
253	0x3d2dc323	0.042422425
254	0xbc13ca4a	-0.009020397
255	0xbd25e0a8	-0.040497452

conv_layers.5.bias f4 [16]
0	0xbe200864	-0.15628201
1	0x3e93f5be	0.28898424
2	0xbe2508cf	-0.16116641
3	0x3eafb542	0.34317976
4	0x3e0b37cd	0.13595505
5	0x3f10d144	0.56569314
6	0xbb035a31	-0.0020042772
7	0x3f09843a	0.53717387
8	0xbe0820a2	-0.13293698
9	0xbddf40d0	-0.10901034
10	0x3d61c4ca	0.055119313
11	0x3e992fc1	0.29919246
12	0x3e1a03ab	0.15040462
13	0x3e54379b	0.20724337
14	0x3df158ff	0.11784553
15	0xbdd72754	-0.10505548

conv_layers.7.weight f4 [16, 16, 5, 5]
0	0x3beea62d	0.0072829933
1	0xbd4ff912	-0.05077464
2	0x3ce5913c	0.028023355
3	0x3d687813	0.056755137
4	0x3c761bfb	0.0150213195
5	0xbc84f2e4	-0.0162291
6	0xbd8f1d2d	-0.06987987
7	0xbd3d5fa6	-0.046233796
8	0xbcc68231	-0.024232002
9	0xbd95cffe	-0.07315062
10	0x3d2e03c0	0.042484045
11	0xbd798e4c	-0.06092672
12	0xbd4545a1	-0.048162106
13	0xbde65406	-0.11246495
14	0xbc40a821	-0.011758835
15	0x3ce1a089	0.02754237
16	0xbd6f1229	-0.05836693
17	0xbc8ab42d	-0.016931618
18	0xbbef98bf	-0.00731191
19	0xbd867b19	-0.06566448
20	0xbda050ea	-0.07827933
21	0x3d11971c	0.0355445
22	0x3dd01792	0.10160746
23	0xbcc7e7c8	-0.024402514
24	0xbd0a0993	-0.033700537
25	0xbd9635f9	-0.07334513
26	0xbd31b9d4	-0.04339011
27	0x3d5eddb6	0.05441066
28	0x3c9eda95	0.019391337
29	0xbb0f9ce7	-0.002191359
30	0xbdaa8259	-0.08325643
31	0xbd3e5f0d	-0.046477366
32	0xbd217f63	-0.039428126
33	0xbdf3ab7d	-0.11897943
34	0xbcfc1597	-0.030772014
35	0x3cb787fc	0.02240371
36	0x3bec45fe	0.007210492
37	0x3d951bc2	0.07280685
38	0x3d8178cb	0.063218676
39	0x3dad6319	0.08466167
40	0xbcabc181	-0.020966293
41	0x3dbe9c5f	0.09307169
42	0x3e25850d	0.16164036
43	0x3d9cb45e	0.0765159
44	0x3d60c565	0.05487575
45	0x3c988dd6	0.01862232
46	0x3d36c376	0.04462
47	0xbac16b27	-0.0014756665
48	0xbcc6962f	-0.024241535
49	0xbbf2337a	-0.0073913904
50	0xbd9cc663	-0.07655027
51	0xbda0e6f4	-0.07856551
52	0xbd8894c2	-0.06668998
53	0xbd891be2	-0.06694771
54	0xbd9e847e	-0.07740115
55	0x3cd54e20	0.02603823
56	0x3cdc397d	0.026882881
57	0xbd1ae9f8	-0.037820786
58	0xbdd95be4	-0.1061323
59	0xbe1be9d4	-0.15225917
60	0xbbc19922	-0.0059081474
61	0xbcfb0ed9	-0.030646728
62	0xbbe7d247	-0.0070746276
63	0xbd743849	-0.05962399
64	0xbdaa1c64	-0.08306196
65	0xbd1cc9ee	-0.038278513
66	0x3d1ab4ff	0.037770268
67	0x3d4bad26	0.049725674
68	0xbd13af70	-0.036055982
69	0x3c746d27	0.014918602
70	0x3d43d291	0.047808234
71	0xbd7f52e3	-0.062334906
72	0xbcc6d9ac	-0.024273716
73	0x3ab4fbe7	0.0013807983
74	0xbddc70c1	-0.107636936
75	0x3ab52578	0.0013820371
76	0x3bdd000d	0.006744391
77	0xbd9e3d3f	-0.077265255
78	0xbaee9b88	-0.0018204311
79	0x3d8c9a9b	0.06865426
80	0xbda223a0	-0.07916951
81	0xbbcafdde	-0.006194814
82	0xbc1d2b12	-0.009592788
83	0xbd6d1358	-0.057879776
84	0xbd07b675	-0.03313299
85	0xbdf38d4d	-0.11892185
86	0xbdbf1885	-0.093308486
87	0xbc304082	-0.010757567
88	0x3d588faa	0.052871384
89	0x3c9556ac	0.018229805
90	0xbd72d263	-0.05928267
91	0xbc902474	-0.017595507
92	0x3bf6ee80	0.0075357556
93	0x3d790a35	0.06080075
94	0x3d847ec0	0.06469488
95	0xbd7c1741	-0.061545614
96	0xbc0f67af	-0.008752747
97	0x3bd75029	0.006570835
98	0xbd444836	-0.04792043
99	0xbd0f2bda	-0.03495393
100	0xbd84b7e7	-0.06480389
101	0x3d3c2cc3	0.045941126
102	0x3d52f82f	0.051506218
103	0x3d2328be	0.039833777
104	0x3d6ec6b4	0.058294967
105	0x3e07e106	0.13269433
106	0x3dd1b693	0.102399014
107	0x3d13a889	0.0360494
108	0xbc8b2c24	-0.016988821
109	0x3b045158	0.0020190086
110	0x3d67d268	0.056597143
111	0x3d15c486	0.036564372
112	0x3e103f92	0.1408675
113	0xbb2af71e	-0.0026087235
114	0x3cd9f12a	0.026604254
115	0xbdd3e19a	-0.103457645
116	0xbdf1731e	-0.11789535
117	0x3d89968e	0.06718169
118	0x3e1b7bef	0.15183996
119	0x3dc1b603	0.09458544
120	0x39464002	0.00018906596
121	0xbd22c78e	-0.03974109
122	0xbde98afc	-0.11403462
123	0x3d1de932	0.03855247
124	0x3dd7dc27	0.105400376
125	0xbd37db13	-0.04488666
126	0xbd6f6f4e	-0.058455758
127	0xbdeb34f1	-0.11484707
128	0xbe3a2a91	-0.181803
129	0xbe3b3da7	-0.18285237
130	0xbd5e7332	-0.054309078
131	0xbdb3d35d	-0.08780549
132	0xbd1df3be	-0.03856253
133	0xbdf02c13	-0.117271565
134	0xbe2560b7	-0.16150175
135	0xbd038447	-0.03210857
136	0x3d628133	0.055298995
137	0x3cb5290d	0.022114301
138	0xbd152abf	-0.03641772
139	0xbd6dd4ec	-0.058064386
140	0xbc9034fe	-0.017603394
141	0x3db04f11	0.08608831
142	0xbd0f31bf	-0.03495955
143	0x3c601947	0.013677902
144	0xbd665dbb	-0.056241732
145	0xbd9aa301	-0.07550622
146	0x3dabd244	0.08389714
147	0x3deeb7e0	0.11656165
148	0x3ddd7b58	0.108145416
149	0x3d14962f	0.03627604
150	0x3ca325de	0.019915517
151	0x397f3799	0.00024339407
152	0x3cc085dc	0.02350133
153	0x3baa2ae7	0.0051931026
154	0x3ad2eb63	0.0016091879
155	0xbcb8bdfe	-0.022551533
156	0xbd42805f	-0.047485705
157	0xbccf878a	-0.025333185
158	0x3c1bf90f	0.009519829
159	0xbd02c3f5	-0.03192516
160	0x3c80a166	0.01570196
161	0x3cd3ed29	0.025869923
162	0x3ca112e2	0.019662324
163	0xbd4ebc5d	-0.050472606
164	0xbb965898	-0.004588198
165	0x3d22a151	0.039704625
166	0xbd6b7672	-0.057486005
167	0x3c0bc115	0.008529921
168	0xbd30ced7	-0.043166008
169	0xbdbaaeea	-0.091153935
170	0xbcc68be1	-0.024236621
171	0xbce6b710	-0.028163463
172	0xbd4e81b4	-0.050416663
173	0x3b864e06	0.0040986566
174	0xbccc5a8f	-0.024945525
175	0x3d3e1740	0.04640889
176	0x3c9a4448	0.018831387
177	0xbceb8e23	-0.0287543
178	0xbc98995b	-0.018627813
179	0xbd104a2a	-0.03522698
180	0xbd974c45	-0.07387594
181	0xbdb59941	-0.088671215
182	0xbaf49193	-0.0018659107
183	0x3c40c1ae	0.011764927
184	0x3b58ae43	0.0033062852
185	0xbd9f7b50	-0.07787192
186	0xbe21e5b0	-0.15810275
187	0xbdb6438a	-0.08899601
188	0xbd301815	-0.042991716
189	0x3d52ec33	0.05149479
190	0xbcab3c49	-0.02090277
191	0xbe0f58fe	-0.13998792
192	0xbdbea01b	-0.093078814
193	0xbd8b5fc1	-0.06805373
194	0x3cd4b467	0.025964929
195	0x3d88036a	0.06641276
196	0xbd9fafd3	-0.07797208
197	0xbd29c71a	-0.041449644
198	0x3cc048cd	0.023472214
199	0x3cf01744	0.029307969
200	0x3d7bcfbc	0.061477408
201	0x3c1fc11d	0.009750632
202	0x3b5d8aff	0.0033804772
203	0x3cbe70ac	0.023247086
204	0x3cbf9279	0.023385273
205	0xbdb276ee	-0.0871409
206	0xbd3d08e3	-0.046151053
207	0xbd115aa6	-0.03548684
208	0x3bae0377	0.0053104716
209	0xbc1fb2db	-0.009747232
210	0xbdb7939a	-0.089637
211	0xbdb05c7f	-0.08611392
212	0xbd8aa7aa	-0.06770261
213	0x3d925759	0.071455665
214	0x3d957257	0.07297199
215	0xbd8533c0	-0.06504011
216	0xbe031aa9	-0.12803139
217	0xbdbc87c7	-0.09205585
218	0x3cf20b33	0.029546356
219	0x3d053cec	0.032528803
220	0xbd7b535e	-0.061358802
221	0xbd2f63c0	-0.04281974
222	0xbd9c5c69	-0.07634813
223	0xbd4a7f64	-0.049437895
224	0xbcd6c9cf	-0.026219277
225	0x3dd189d1	0.102313645
226	0x3c3edd2e	0.011649413
227	0xbd1b09f8	-0.037851304
228	0xbbd8ecd2	-0.006620028
229	0x3c43abfb	0.011942859
230	0x3d31807d	0.043335427
231	0x3ce8deaf	0.028426496
232	0xbd019a1f	-0.031641122
233	0xbd646e72	-0.05576939
234	0xbd466c23	-0.04844297
235	0x3d21078b	0.039313834
236	0xbc502ef2	-0.012706505
237	0xbc9b161f	-0.018931447
238	0xbd1b1df8	-0.037870377
239	0xbddb62a9	-0.10712177
240	0x3d7b0eeb	0.061293524
241	0x3d84e26f	0.06488501
242	0xbd9b5694	-0.07584873
243	0xbd6058b4	-0.054772094
244	0xbdd5cdb7	-0.104396276
245	0xbc88526d	-0.016640866
246	0xbb632db5	-0.0034664695
247	0xbc43876a	-0.011934141
248	0xbd3c8d14	-0.04603298
249	0xbd5f71da	-0.054551937
250	0x3c8d7144	0.017265923
251	0xbc069a43	-0.00821549
252	0x3d310ba0	0.043223977
253	0xbb71e46e	-0.0036909836
254	0xbc8c7bd2	-0.017148886
255	0xbd5a6a53	-0.053324055

conv_layers.7.bias f4 [16]
0	0x3cf4511d	0.029823834
1	0x3d5d2d94	0.053998545
2	0xbe137087	-0.14398395
3	0x3dfa78f4	0.12230101
4	0x3d978cba	0.07399888
5	0x3e039dec	0.12853211
6	0x3e562659	0.20913066
7	0x3e0e775a	0.13912717
8	0xbcf668b7	-0.030079229
9	0xbdef1dc3	-0.116755985
10	0x3c80db15	0.015729466
11	0x3ed491e3	0.41517553
12	0xbc4388e6	-0.011934495
13	0x3e465844	0.19369608
14	0x3c349b6f	0.011023386
15	0x3db41bcb	0.087943636

conv_layers.10.weight f4 [32, 16, 5, 5]
0	0x3d90f0b2	0.07077159
1	0x3d15f277	0.036608186
2	0xbd4b003c	-0.04956077
3	0xb9a122c8	-0.00030734227
4	0xbcc419fa	-0.023938168
5	0x3dbf99dc	0.09355518
6	0x3d32c9d4	0.04364951
7	0xbcc5babb	-0.024136892
8	0xbd0c188c	-0.034203097
9	0xbd760a7b	-0.06006859
10	0x3d547320	0.051867604
11	0x3ddfd1a1	0.109286554
12	0x3d858730	0.065199256
13	0xbd011ff3	-0.03152461
14	0xbcd46fc2	-0.025932197
15	0x3cb24c4f	0.021764902
16	0x3b1a4a8b	0.0023542966
17	0xbb271124	-0.0025492394
18	0x3cfeb0fd	0.031090254
19	0xbd8bbcd1	-0.06823123
20	0xbda113e2	-0.078651205
21	0xbc84566c	-0.01615449
22	0xbc4e545a	-0.012593353
23	0xbd36b5b7	-0.04460689
24	0xbd34fc06	-0.04418566
25	0xbba0853e	-0.004898696
26	0x3dc62381	0.096747406
27	0x3df7f880	0.121079445
28	0xb9aa290e	-0.00032455515
29	0x3c3d990b	0.011572133
30	0x3ceb416a	0.028717715
31	0xbaafbd73	-0.0013407901
32	0x3ddca739	0.10774083
33	0x3d228b5a	0.039683677
34	0x3c55a2ff	0.01303935
35	0xbd885975	-0.066576876
36	0xbddcb717	-0.10777109
37	0x3c5f30da	0.013622487
38	0xbba246db	-0.0049522943
39	0x39738232	0.00023222787
40	0xbdbfab4d	-0.09358845
41	0xbdd4787a	-0.103745416
42	0xbce346d8	-0.027743742
43	0x3c6df00b	0.014522563
44	0xbd256d26	-0.040387295
45	0xbc70a68b	-0.014688144
46	0xbd48e49b	-0.04904614
47	0xbd21fb74	-0.039546445
48	0x3c4a100a	0.012332926
49	0xbc9fe841	-0.019519927
50	0xbda353d6	-0.07974975
51	0xbd9708cd	-0.073747255
52	0xbbeed06e	-0.0072880303
53	0xbd81f0e6	-0.06344776
54	0xbdcdcf11	-0.100492604
55	0xba24dfe5	-0.00062894664
56	0xbdc4a38f	-0.09601509
57	0xbd40213c	-0.046906695
58	0xbd6c7d5d	-0.057736743
59	0xbd92ff86	-0.071776435
60	0xbd1d2bb0	-0.03837174
61	0xbc9a5254	-0.018838085
62	0xbdc2e31e	-0.095159754
63	0x3c9dfa06	0.01928426
64	0x3db3a530	0.087717414
65	0x3d6fedc6	0.058576368
66	0x3d2bd003	0.041946422
67	0x3d3fdd59	0.046841953
68	0xbcc51b1b	-0.024060776
69	0x3d508ecf	0.050917443
70	0x3cc73d4a	0.024321217
71	0xbcdcab9c	-0.026937298
72	0xbc3fb788	-0.011701472
73	0xbd5eac35	-0.05436345
74	0xbc2082af	-0.009796782
75	0x3aebcba6	0.0017989769
76	0xbdb3af10	-0.08773625
77	0xbda86892	-0.0822307
78	0x3cd9819b	0.026551059
79	0x3cffa5fc	0.031207077
80	0xbb3450ed	-0.0027514056
81	0x3c9e2ffc	0.01930999
82	0xbc9b7d06	-0.018980514
83	0xbd2f87ab	-0.042853992
84	0xbca91a75	-0.020642499
85	0xbd86cd4f	-0.06582128
86	0x3b2f3fb6	0.0026740856
87	0xbda58268	-0.08081514
88	0xbd025b3e	-0.031825297
89	0xbd810b61	-0.063009985
90	0xbdac90df	-0.084260695
91	0xbc773357	-0.015087924
92	0x3c0153a6	0.0078934785
93	0x3ddbd0ff	0.10733222
94	0x3d6eb38f	0.05827671
95	0xbd45d2d8	-0.04829678
96	0xbdb6f4b2	-0.08933391
97	0xbd2fc14f	-0.042908963
98	0x3d74c105	0.05975439
99	0x3d305844	0.043052927
100	0xbcb783fe	-0.022401806
101	0x3d5f7dfd	0.05456351
102	0x3d9bb2fc	0.07602498
103	0x3d5969a9	0.05307928
104	0xbd2562ea	-0.040377535
105	0xbd3a0a7d	-0.04542016
106	0xbd8f9c78	-0.07012266
107	0xbd3a9433	-0.04555149
108	0x3da9585d	0.08268807
109	0xbd851b5a	-0.064993575
110	0xbc968b65	-0.018377015
111	0xbdaff61a	-0.08591862
112	0xbc6c3626	-0.014417207
113	0x3c9e55ff	0.019328116
114	0xbd1bcb07	-0.03803542
115	0xbcdcc751	-0.02695051
116	0xbd844068	-0.06457597
117	0x3d456803	0.048194896
118	0x3d472404	0.04861833
119	0x3dacd72e	0.0843948
120	0xbd9881fd	-0.07446668
121	0xbe030b96	-0.12797388
122	0xbdbb2f4f	-0.09139883
123	0xbd6d4b5b	-0.057933193
124	0xbdd52239	-0.10406918
125	0xbc600676	-0.013673415
126	0x3b98d119	0.0046635983
127	0x3d047f50	0.032347977
128	0xbd0fcd3a	-0.03510783
129	0xbd9a45c9	-0.07532842
130	0xbd8830c8	-0.06649929
131	0x3da1d628	0.07902175
132	0x3dc551f5	0.09634773
133	0x3dc6bf3f	0.09704446
134	0x3d830383	0.06397154
135	0x3c1a86c6	0.009431547
136	0x3d233ce1	0.03985298
137	0x3d0caa35	0.03434201
138	0x3d9310c9	0.07180936
139	0x3db62333	0.088934325
140	0xbc31ddcf	-0.010856106
141	0xbdb1c180	-0.08679485
142	0xbd292ea5	-0.04130425
143	0x3b804d9a	0.003915501
144	0x3c847252	0.016167793
145	0xbd86618a	-0.06561573
146	0xbd3a715d	-0.045518268
147	0x3d90123c	0.07034728
148	0x3d70303b	0.058639746
149	0x3d5fdf57	0.054656353
150	0x3e084092	0.13305882
151	0xbd021313	-0.03175647
152	0x3cfb42f0	0.030671567
153	0xbdd4b559	-0.10386152
154	0xbd52f6a9	-0.051504765
155	0x3e10a113	0.14123945
156	0x3d9fca7c	0.07802293
157	0x3d915ee2	0.070981756
158	0x3b4ccc52	0.0031249714
159	0xbd909129	-0.07058937
160	0x3d3b36d7	0.045706596
161	0x3e05e500	0.13075638
162	0x3cd4be54	0.025969662
163	0x3c07231e	0.008248119
164	0xbe04d400	-0.12971497
165	0xbcae6d10	-0.02129224
166	0x3dfe8ada	0.124288276
167	0xbce55201	-0.027993204
168	0x3bc2d498	0.0059457533
169	0x3bdbaba3	0.0067038103
170	0x3c4ad134	0.0123789795
171	0x3cb09bfe	0.021558758
172	0x3d677480	0.056507587
173	0x3d6d2b51	0.057902638
174	0xbcf3545d	-0.029703313
175	0x3c7faae8	0.015604712
176	0xbe042c73	-0.12907581
177	0xbdeeed76	-0.11666386
178	0xbd262123	-0.040558945
179	0xbc900cda	-0.017584253
180	0x3d00833e	0.031375162
181	0xbd4b3239	-0.049608443
182	0xbdcb2dd8	-0.099208534
183	0xbd635b8c	-0.055507228
184	0x3a8a0863	0.0010531064
185	0x3dc09de3	0.094051145
186	0x3d8c3bad	0.0684732
187	0x3d89b6bd	0.06724308
188	0xbcc4637e	-0.023973223
189	0xbcc4fabb	-0.024045339
190	0x3cc4c70c	0.024020694
191	0x3dc032e2	0.09384705
192	0xbd141d4d	-0.036160756
193	0xbd44eca5	-0.048077244
194	0xbdd94ca7	-0.106103234
195	0x3ba558a5	0.0050459676
196	0x3d6db0e2	0.058030017
197	0x3d8e4b2d	0.069479324
198	0x3d694234	0.0569479
199	0x3b9da1c7	0.004810545
200	0xbd6f6d46	-0.05845382
201	0x3b969b8c	0.0045961794
202	0xbcd9872a	-0.026553709
203	0xbb9da4ca	-0.004810904
204	0x3b302e08	0.0026882906
205	0xbdb5c311	-0.088750966
206	0xbdcffab6	-0.10155241
207	0x3d52de1e	0.05148136
208	0x3d133310	0.03593737
209	0x3d2108d2	0.039315052
210	0xbd4c9eb2	-0.04995603
211	0x3cd8338d	0.026391769
212	0x3daa9401	0.08329011
213	0x3d9ab2df	0.07553648
214	0x3da314ff	0.07962989
215	0x3b52e298	0.0032178517
216	0xbc65ba99	-0.014021539
217	0x3c63fd57	0.013915381
218	0xbad0c8fd	-0.001592904
219	0xbc645463	-0.013936135
220	0x3cb59520	0.022165835
221	0xbce29c7d	-0.02766251
222	0xbcb77a2f	-0.022397129
223	0xbc660c8b	-0.014041076
224	0x3d0951cb	0.03352527
225	0x3adb0bf4	0.0016711936
226	0xbcbaa276	-0.022782546
227	0xbcb3a87f	-0.021930931
228	0xbc32065d	-0.010865775
229	0xbd96049d	-0.07325099
230	0xbdabf129	-0.08395607
231	0xbc9fba28	-0.019497946
232	0xbc2b9e9e	-0.010474829
233	0xbd232c49	-0.039837155
234	0x3b0adb0b	0.0021187689
235	0xbdb45df3	-0.08806982
236	0xbd4c4c0f	-0.049877223
237	0x3d0f712f	0.03502005
238	0x3dfaac80	0.12239933
239	0x3db151d0	0.086581826
240	0x3ce15527	0.027506424
241	0xbd9ef268	-0.07761079
242	0xbbbc62d1	-0.0057490845
243	0x3dca2092	0.098694935
244	0x3dca97b2	0.09892215
245	0xbce3453e	-0.027742978
246	0xbccd8dec	-0.025092088
247	0x3d2ac077	0.041687455
248	0xbb998f90	-0.0046863034
249	0x3d3b9936	0.04580041
250	0xbc816432	-0.015794847
251	0x3dd6c247	0.10486274
252	0x3d8678be	0.065659985
253	0x3bd450ab	0.006479343
254	0xbc813bbf	-0.01577556
255	0xbd81f4e4	-0.06345537

conv_layers.10.bias f4 [32]
0	0xbde67ea7	-0.11254626
1	0xb852a902	-5.0225302e-05
2	0xbdb759f6	-0.089527056
3	0x3e5be82c	0.21475285
4	0x3d482060	0.048859
5	0x3c644f41	0.013934911
6	0x3c3fbf1f	0.011703282
7	0x3d7bab9a	0.06144295
8	0x3da74465	0.08167342
9	0x3e703df3	0.23461132
10	0xbd112f1b	-0.035445314
11	0x3bfb5453	0.0076699643
12	0x3e21b8ac	0.15793103
13	0x3e902686	0.2815439
14	0xbe2dcbe3	-0.16972308
15	0x3df15884	0.11784461
16	0x3eb1cb67	0.34725496
17	0x3e09326a	0.13398138
18	0xbdcad06f	-0.09903037
19	0x3eeba451	0.460238
20	0x3e848943	0.25885972
21	0x3d88948a	0.066689566
22	0x3cd902df	0.026490627
23	0xbd885159	-0.06656141
24	0xbd17427f	-0.03692865
25	0xbd4c7193	-0.049913
26	0xbd066e1b	-0.03281985
27	0xbdeb20f8	-0.11480898
28	0x3e5e9b8d	0.21739025
29	0x3d12c9a8	0.035836846
30	0x3e35ce9d	0.17754598
31	0xbd546b1d	-0.051859964

conv_layers.12.weight f4 [32, 32, 5, 5]
0	0xbd2c4cf7	-0.042065587
1	0xbc875dc0	-0.016524196
2	0xbc805900	-0.015667439
3	0x3dea1bb6	0.11431067
4	0x3d1c7aa6	0.038202904
5	0xbd60da0c	-0.054895446
6	0xbc27257d	-0.010201809
7	0xbd340639	-0.043951247
8	0xbd6311d4	-0.055436924
9	0x3d945adf	0.07243895
10	0xbd31a59e	-0.043370835
11	0xbce535ae	-0.027979698
12	0xbd2a15e6	-0.04152479
13	0xbd444290	-0.04791504
14	0xbbd0a5a0	-0.0063674003
15	0xbd35abc2	-0.044353254
16	0xbd5734fa	-0.052540757
17	0xb8aeebc2	-8.34088e-05
18	0xbc323bce	-0.010878516
19	0xbd063d2b	-0.032773178
20	0xbd8afe20	-0.06786752
21	0x3bce6987	0.006299201
22	0x3c803a80	0.015652895
23	0x3d8433c4	0.06455186
24	0xbd65f577	-0.056142297
25	0x3d743b81	0.05962706
26	0xbc85da51	-0.016339453
27	0xbc17c16a	-0.009262422
28	0xbb8de1d9	-0.0043299017
29	0x3cb6ab89	0.022298591
30	0x3cb1d2f3	0.021707034
31	0x3d24e0cf	0.040253457
32	0x3cf2323d	0.029564971
33	0xbc59ac9e	-0.013285784
34	0xbdbb3e2c	-0.09142718
35	0x3d83befe	0.06432913
36	0xbd04cd84	-0.032422557
37	0xbba4111a	-0.0050069215
38	0x3dc4ad37	0.096033506
39	0x3da9f614	0.08298889
40	0xbd7cf2d2	-0.06175501
41	0x3ba29fc5	0.0049628937
42	0x3c48bc42	0.012251915
43	0x3d424296	0.047426783
44	0x3d355ccc	0.04427795
45	0xbd5d66e5	-0.054053206
46	0xbd3e5889	-0.046471152
47	0xbd970dce	-0.0737568
48	0x3c4b4db9	0.012408667
49	0x3be9077b	0.0071114874
50	0xbd016b50	-0.03159648
51	0xbd2534ee	-0.04033368
52	0xbd329c88	-0.04360631
53	0x3c892d09	0.016745107
54	0xbd88d913	-0.066820286
55	0xbc76c87e	-0.0150624495
56	0xbb6b73d4	-0.0035927193
57	0xbe0116b5	-0.12606318
58	0xbdca7043	-0.098846935
59	0xb915c3c0	-0.0001428267
60	0xbca60ff8	-0.020271286
61	0xbc4c40a4	-0.012466583
62	0xbc8c0587	-0.01709248
63	0x3a60745c	0.0008562261
64	0x3cdd4a90	0.027013093
65	0x3c70ea45	0.014704292
66	0xbd377011	-0.04478461
67	0xbd0d021f	-0.03442585
68	0x3c694cd8	0.014239512
69	0xbd20c7e1	-0.03925312
70	0x3d0f40af	0.034973796
71	0x3d52798f	0.05138546
72	0x3e0a8177	0.1352595
73	0x3dd61649	0.10453469
74	0xbca99cf6	-0.020704728
75	0xbd8f0c2f	-0.06984746
76	0xbd6bbcb5	-0.057553012
77	0xbd42d454	-0.047565773
78	0xbc7dab45	-0.015482728
79	0xbce30917	-0.027714295
80	0xbbfa883a	-0.007645634
81	0xbd05eb2a	-0.032694973
82	0xbd0cc01d	-0.0343629
83	0x3ca022db	0.01954787
84	0xbcd7725e	-0.026299652
85	0x3c35a053	0.011085588
86	0x3c5de42e	0.013543172
87	0x3c4682ca	0.0121161435
88	0x3d34e2ed	0.044161726
89	0xbd9910a8	-0.0747388
90	0x3d68f1c2	0.056871183
91	0xbc8dcd87	-0.017309917
92	0xbda3241b	-0.07965871
93	0xbd606d99	-0.05479202
94	0xbcf6cae9	-0.030126052
95	0xbd999bda	-0.075004295
96	0x3d19d524	0.037556782
97	0x3c815113	0.01578573
98	0x3c97e9fa	0.018544186
99	0xbbfa4877	-0.007638033
100	0xba7520e8	-0.0009350912
101	0xbd346430	-0.04404086
102	0xbd23312b	-0.039841812
103	0x3d94dbdd	0.07268498
104	0x3bc5db8e	0.006038136
105	0xbdf346b1	-0.11878718
106	0xbbd23b3d	-0.006415753
107	0xbd084f17	-0.03327855
108	0xbd286ead	-0.041121174
109	0x3d270b15	0.040782053
110	0x3ca3f59d	0.020014578
111	0x3d6d74e4	0.057972804
112	0xbd385f35	-0.04501267
113	0xbd56013b	-0.052247267
114	0x3c23f218	0.01000645
115	0x3df69cca	0.12041624
116	0x3d957fab	0.07299741
117	0x3cb91f2b	0.02259787
118	0x3c80cf6a	0.015723903
119	0x3c87ca4f	0.01657596
120	0x3e0e94af	0.13923906
121	0x3dbf1f99	0.09332199
122	0x3cb8a7ad	0.022540892
123	0x3c0999bb	0.008398469
124	0xbbabdad0	-0.0052445903
125	0xbd57d560	-0.052693725
126	0xbccd813f	-0.025086043
127	0xbd5f632b	-0.054537933
128	0xbd0b6717	-0.03403386
129	0x3bda42f5	0.006660814
130	0xbb5f374f	-0.0034060066
131	0xbc83ae3e	-0.016074296
132	0xbd44d081	-0.048050407
133	0xbd447b97	-0.047969427
134	0xbdc1b2c1	-0.09457923
135	0xbda64b67	-0.081198506
136	0x3d357120	0.044297338
137	0x3d8b9453	0.068154
138	0xbc124b90	-0.008929148
139	0x3ce3dd12	0.027815375
140	0xbd93c9f4	-0.07216254
141	0xbd87f2b0	-0.06638086
142	0xbda46d97	-0.08028715
143	0x3c6fa451	0.014626578
144	0xbd0133e5	-0.03154363
145	0x3d9c5fe6	0.07635479
146	0x3ce44d9e	0.027869042
147	0x3c651ff5	0.01398467
148	0x3ca7f9e8	0.020504907
149	0xbc9e6bb6	-0.01933847
150	0xbb0cec9e	-0.002150334
151	0x3bd21878	0.0064116083
152	0xbcc64f2c	-0.024207674
153	0xbd32ad8a	-0.04362253
154	0xbd8aa985	-0.067706145
155	0xbdace7f3	-0.08442678
156	0xbcb9a5dc	-0.022662096
157	0x3d06e3d9	0.032932136
158	0xbc31444e	-0.010819508
159	0x3d5fb826	0.054618977
160	0xbc82ad79	-0.015951859
161	0xbc64e3e8	-0.013970353
162	0x3cb7d29b	0.022439292
163	0x3d710691	0.058844153
164	0xbd7f3e05	-0.062315006
165	0xbc8ccbf7	-0.017187102
166	0x3d392a90	0.045206606
167	0xbbc4f304	-0.006010415
168	0xbcaa5f87	-0.020797504
169	0xbd300d6b	-0.042981546
170	0xbc5e8a02	-0.013582708
171	0xbc8a3d91	-0.01687506
172	0x3ca3b057	0.019981546
173	0x3c349e93	0.011024135
174	0xbcffcb44	-0.031224854
175	0xbad0fa17	-0.0015943673
176	0xbd9dc93c	-0.07704398
177	0xbce6bfb2	-0.02816758
178	0x3cbf541c	0.023355536
179	0x3db077ea	0.08616622
180	0xbdb153a5	-0.08658532
181	0xba9b5f9f	-0.0011854059
182	0xbd881449	-0.06644494
183	0xbce11183	-0.02747417
184	0x3c0cbc29	0.008589783
185	0x3b2bfa53	0.0026241734
186	0x3b0ac9ea	0.002117748
187	0xbd3f8b06	-0.046763442
188	0xbd8152ba	-0.06314607
189	0xbd66d694	-0.05635698
190	0x3da85fcc	0.08221397
191	0x3d160060	0.03662145
192	0x3d0c0408	0.034183532
193	0x3d1d92bf	0.038470026
194	0xbc22fc4c	-0.009947848
195	0x3d0ab0fd	0.033860195
196	0x3e2078f7	0.15671144
197	0x3d2f8310	0.0428496
198	0xbd58d394	-0.05293615
199	0xbdb64797	-0.089003734
200	0x3d9b07a6	0.07569818
201	0x3c347edb	0.011016573
202	0xbbbb7f0e	-0.005721933
203	0xbd460cbf	-0.048352
204	0x3c8482b0	0.016175598
205	0xbd2b8a90	-0.04188019
206	0xbdd5e672	-0.104443446
207	0xbcbc2d11	-0.022970708
208	0x3cbe5a8b	0.023236534
209	0x3d31480e	0.043281607
210	0x3d394aec	0.045237467
211	0xbcc83bc2	-0.024442557
212	0xbd6bc555	-0.057561237
213	0xbd3052a7	-0.043047573
214	0xbc8b365c	-0.016993694
215	0x3a91fc1e	0.0011137759
216	0xbd55e133	-0.05221672
217	0xbd9f4084	-0.07775977
218	0xbd54f130	-0.051987827
219	0x3d7e1883	0.062035095
220	0x3d47561d	0.04866611
221	0xba078db7	-0.00051709585
222	0x3cdbebc5	0.026845822
223	0xbd134176	-0.0359511
224	0x3cea50ab	0.028602919
225	0x3dac6c68	0.08419114
226	0xbcc41fae	-0.023940887
227	0x3cc868d3	0.024464047
228	0xbd2207d4	-0.039558247
229	0x3c6ebdc2	0.014571609
230	0x3d7f078b	0.062263053
231	0xbcaaf94b	-0.020870825
232	0x3c170800	0.009218216
233	0xbb452f16	-0.003008788
234	0xbcafef06	-0.02147628
235	0xbdad0c10	-0.08449566
236	0xbddde820	-0.1083529
237	0xbd7a9792	-0.061179705
238	0x3c999b1b	0.018750718
239	0x3d260084	0.040527835
240	0x3c993554	0.018702187
241	0xbd5cb29d	-0.053881276
242	0xbd164f1d	-0.036696542
243	0xbba3efe6	-0.0050029634
244	0xbc375066	-0.011188602
245	0x3d903af0	0.070424914
246	0x3dae65ea	0.08515532
247	0xbc9654a4	-0.018350907
248	0xbc907dd4	-0.017638125
249	0xbd556b61	-0.052104358
250	0xbd90d55f	-0.07071947
251	0xbd0529c5	-0.032510538
252	0xbdae2005	-0.08502201
253	0xbc180696	-0.009278914
254	0x3bc24fe6	0.005929935
255	0x3c686077	0.014183155

conv_layers.12.bias f4 [32]
0	0x3de47946	0.111559436
1	0xbdebbd4b	-0.11510714
2	0x3dd5680d	0.10420237
3	0xbdacfe40	-0.08446932
4	0x3ece0e49	0.40245274
5	0x3d921bdb	0.07134219
6	0x3c102f07	0.008800275
7	0xbc43d062	-0.011951538
8	0x3c3f6ab1	0.011683152
9	0x3b67f599	0.003539419
10	0xbe601869	-0.21884312
11	0xbe0c6dce	-0.13713762
12	0x3d8a9fc4	0.06768754
13	0xbd637025	-0.05552687
14	0x3d42a744	0.0475228
15	0xbe1addbf	-0.15123652
16	0x3e98018f	0.2968869
17	0x3e87be76	0.26512498
18	0xbdd85de0	-0.1056478
19	0x3de94f27	0.1139205
20	0x3ed69d6b	0.41916975
21	0x3da60109	0.08105666
22	0x3e8121c8	0.25221086
23	0x3bcbc882	0.0062189708
24	0x3e810e21	0.25206092
25	0x3e5b993d	0.21445175
26	0x3cc31ebe	0.02381837
27	0x3e44db51	0.19224288
28	0x3f17879c	0.591913
29	0xbd304051	-0.043030087
30	0x3e164b86	0.14677247
31	0xbd273089	-0.04081777
