assignment3/checkpoints/best.ckpt (torch, 332655 bytes, 16 tensors)

conv_layers.0.weight f4 [8, 3, 5, 5]
000000 96 33 82 bb 32 13 db 3d d7 10 81 bd a9 ef 12 be
       -0.0039734347 0.106970206 -0.0630204 -0.14349236
000010 4b b3 0e be 83 a4 91 3d 1a 56 d0 3c 06 7f 1d 3d
       -0.13935582 0.07111456 0.025431681 0.038451217
000020 7a 21 39 be cd fa 86 bd e7 3c 07 be 92 f8 82 be
       -0.18079177 -0.06590805 -0.13206826 -0.2558027
000030 ec bf b7 be 49 f6 9e be 99 b7 d2 bd 74 58 a8 bd
       -0.35888612 -0.31047276 -0.10288925 -0.08219996
000040 96 c8 73 bd 35 2f ed 3d bb 23 07 bd 26 5a 12 3d
       -0.059517466 0.1158127 -0.03299306 0.035730503
000050 78 fc ec bc ad d4 0b 3e f0 32 30 3e 1f d1 16 3e
       -0.02892898 0.13655348 0.17206931 0.14728211
000060 cb 0a 37 bc f7 07 8e bd 71 af f9 3d a0 7a 27 bd
       -0.011172007 -0.06935113 0.12191666 -0.04088843
000070 c4 10 a2 bd dd 7e b1 bd cf 76 77 bd 31 15 ed 3d
       -0.07913354 -0.086667754 -0.06041604 0.115763076
000080 56 c4 a0 bd 35 2e 2c be b9 a6 1b be 01 69 74 be
       -0.07849948 -0.16814502 -0.15200318 -0.23868181
000090 26 b5 9a be 0e 3e b4 bd 71 8c 02 be 5b 8a 57 3c
       -0.3021633 -0.088008985 -0.12748887 0.013155545
0000a0 87 df 05 be ba 40 3e be 00 c5 bc 3d 11 81 4b bd
       -0.1307355 -0.18579379 0.09217262 -0.049683634
0000b0 76 e1 60 bc 55 0e 30 be 54 3e c2 3d 4b bc 87 3e
       -0.013725629 -0.17192967 0.094845444 0.26510844
0000c0 cc 8a 27 bb 71 54 89 bc a0 a0 04 3d ac 17 69 3e
       -0.0025564907 -0.016763898 0.032379746 0.22762936
0000d0 9b f6 6c 3e a4 4a 0c 3e dc 77 1e 3e 22 e9 e6 bc
       0.23140948 0.13700348 0.1547541 -0.028187338
0000e0 b0 9b 2d 3e 29 a5 8d 3d b8 aa f7 bc ea aa ce 3c
       0.16953921 0.069162674 -0.030232772 0.025227983
0000f0 90 0c 06 bd cd ce 77 bd 64 df da bd cc e1 83 bb
       -0.032726824 -0.060499955 -0.1068714 -0.00402472
000100 2f f1 13 3e c4 bf 24 be 78 84 92 bd d5 49 2b 3e
       0.14447473 -0.16088778 -0.07154173 0.16727383
000110 37 63 45 3e c1 c0 71 3e 1b 1a 84 be 2c c1 2b bd
       0.19276129 0.23608686 -0.25801167 -0.04193227
000120 c0 45 7d 3e 6f 47 27 3e 42 4c df 3d 48 34 a7 3d
       0.24733639 0.16335844 0.10903217 0.08164269
000130 84 65 a7 bc b5 5f 28 bd 1d 27 29 3e 43 7c f4 3c
       -0.020434149 -0.0411069 0.16518827 0.029844409
000140 57 bf 3a be 5a 59 bc bd 98 a5 52 be 3c 3e 9d be
       -0.18237053 -0.0919673 -0.20570982 -0.30711544
000150 c0 5b 92 3d 8f cc 80 bd 4b 21 8c 3d a8 bd 51 3d
       0.07146406 -0.062890165 0.06842288 0.05120626
000160 a4 71 88 bd f9 28 59 3d 86 2a 6b bd c3 22 44 3e
       -0.066623 0.05301759 -0.0574136 0.19153886
000170 47 0d be 3e 55 80 23 be 43 cc 35 be 90 52 26 be
       0.37119505 -0.15966924 -0.17753701 -0.16242433
000180 15 4f 88 bd 51 37 c7 3d b4 28 a4 be 84 03 8b bd
       -0.06655709 0.09727348 -0.32062304 -0.0678778
000190 62 68 cf 3d 34 cb a4 3d 07 dd 88 bc 7c 3a 01 bd
       0.10127331 0.080465704 -0.016706957 -0.031549916
0001a0 78 31 3a be 8e e6 89 3c 97 03 01 be 3e 58 87 be
       -0.18182933 0.01683357 -0.12599026 -0.2643451
0001b0 99 bd 5a be e6 d0 1f 3c 14 7b 93 bc 07 d5 96 3e
       -0.21361388 0.009754395 -0.018003024 0.29459402
0001c0 ed 54 39 3e eb bc 18 3d 7d 68 41 3e 00 85 bc bd
       0.18098803 0.03728954 0.18887515 -0.09205055
0001d0 09 cb 7c 3e 33 53 e2 3e 4d 88 03 be d5 25 3b bd
       0.24686827 0.442041 -0.12844963 -0.045690376
0001e0 11 1a ca 3d df 12 e0 3c 8e be 11 3e a6 f5 11 be
       0.09868253 0.027352748 0.14232847 -0.14253864
0001f0 0d 37 1b be 84 f7 ac bd 88 ff 28 bd 74 a5 54 bc
       -0.15157719 -0.08445647 -0.04125932 -0.0129789
000200 41 43 bb 3c 2f 41 9d bd 8a 99 1b bb 8e 37 a6 bc
       0.022859218 -0.076784484 -0.002374264 -0.020290162
000210 62 45 84 be 9e 6d 5e be cb a8 b6 3d 8e 0b 23 bc
       -0.25834185 -0.21721503 0.089189135 -0.009951485
000220 33 e0 2f 3e 33 a2 33 3e 47 f3 d7 bd 99 85 19 3e
       0.17175369 0.17542343 -0.10544448 0.1499237
000230 fa 20 42 3d eb 66 88 3e 58 9e ef 3e af 83 4b be
       0.04739473 0.2664102 0.46800494 -0.19874452
000240 49 a0 49 be fc a4 a4 bd c9 0d 26 3d c3 10 19 3e
       -0.1969005 -0.08039281 0.04054049 0.149478
000250 20 ef 87 be 0c e3 fc bd 8d 71 f3 3c 29 8f f9 3d
       -0.26549625 -0.12347993 0.029717231 0.12185509
000260 10 23 75 3e 9e a1 b1 3e 26 de 76 3e c6 97 24 3e
       0.23939157 0.34693617 0.2410818 0.16073522
000270 0c 93 cd 3e 17 8b 0a 3e 2c 53 33 3e 24 2a 9f 3d
       0.4015125 0.13529621 0.17512196 0.077717096
000280 50 74 79 3e 10 59 a2 3e c9 04 db 3c ea 0d f8 bd
       0.24360776 0.31708574 0.02673568 -0.12112029
000290 34 62 03 bc e6 0b 04 3e 66 fe a7 3d c5 cb 9b 3d
       -0.008019019 0.12895164 0.082028195 0.07607225
0002a0 dc e1 6d be 08 d0 59 bd 89 5c 66 3b a2 34 69 be
       -0.2323069 -0.05317691 0.003515037 -0.22773984
0002b0 9e c7 13 3d 42 9b d9 bd 0d 6b 81 be ab 33 d0 bd
       0.03607904 -0.10625316 -0.25276986 -0.10166105
0002c0 4b f9 36 be d8 3a 71 be 85 51 83 bd ad 2c 8d be
       -0.17868535 -0.23557603 -0.06412033 -0.27573147
0002d0 74 63 ed bd 11 5e 27 be ea 9b 43 be 36 5f 7a be
       -0.11591235 -0.16344477 -0.19102445 -0.24450383
0002e0 41 2a 58 be 80 01 36 bb 4a da 6c bd df b0 82 be
       -0.21109869 -0.002777189 -0.057825364 -0.25525567
0002f0 71 94 e4 be b2 ab 41 be 97 69 01 3e d0 d8 a6 3d
       -0.44644502 -0.18913153 0.12637936 0.081468225
000300 d5 c4 18 be c1 e5 47 be ca 46 2e be ab 84 c3 bc
       -0.14918835 -0.19521238 -0.17019191 -0.023866972
000310 d3 e3 0b be 9e f1 dd 3d 75 f8 37 bd 7f 3a 0d 3d
       -0.13661127 0.108371004 -0.04491468 0.034479614
000320 d2 51 cf 3d 99 b5 0a 3e 7d 6c 85 bd ef 66 89 bc
       0.10123028 0.13545837 -0.06514833 -0.016772715
000330 ef fc 22 bd 2a 99 1e 3e 8b 7e 77 bc 49 80 06 bd
       -0.039791998 0.15488115 -0.015105854 -0.032837186
000340 c1 77 a6 bd d1 ac c3 bd d1 6b f6 3d 18 54 cb 3d
       -0.0812831 -0.095544465 0.12032283 0.09928149
000350 cf 61 a1 bd e6 df 77 be d8 31 fa bd fe 27 43 3e
       -0.07879984 -0.24206504 -0.12216538 0.19058225
000360 52 58 8c 3d d1 d8 be 3c ef ab 12 3d 60 3b 97 bd
       0.06852783 0.023296745 0.0358085 -0.07384372
000370 18 fc 06 3e 0a 20 38 3e 46 2d 7e 3e c1 bd 2b 3e
       0.13182104 0.17980972 0.24821958 0.16771604
000380 a0 ca 17 3d 48 b1 2c 3e 29 e1 83 3e 08 5f 8c 3e
       0.037058473 0.16864502 0.2575772 0.27416253
000390 21 fb 95 3d 2b ea 29 3e fb 64 a2 3d b6 10 86 3e
       0.0732329 0.16593234 0.07929417 0.26184624
0003a0 1f 07 ea 3d 3e 39 86 3e 3c 26 65 3e 65 c8 09 be
       0.114271395 0.26215547 0.22377867 -0.1345535
0003b0 ff 4f 7a bd 0c 0e 97 be c8 e9 60 3e a7 bd 3f 3d
       -0.061111446 -0.29502904 0.2196418 0.046811726
0003c0 32 ed 2a 3d 34 e6 fe 3c 79 17 ca be 75 04 95 3e
       0.041730113 0.031115629 -0.39471033 0.29104963
0003d0 4b 81 0c 3d ea 8e 79 be a3 27 0f bd 93 79 1a bf
       0.03430299 -0.24370924 -0.03494991 -0.6034176
0003e0 c0 c6 bc bc 5f ad 4d be 9d c5 6e be 82 4d 4a bd
       -0.02304399 -0.20085667 -0.23317571 -0.049390323
0003f0 f9 a5 57 bd 20 ca 5a be 73 9e da bd 4c a1 e8 bd
       -0.05264852 -0.21366167 -0.10674753 -0.1135889

conv_layers.0.bias f4 [8]
000000 f2 a1 bd be 09 e1 03 3f b3 e5 c3 be 12 ea 1b 3f
       -0.37037617 0.5151525 -0.38261184 0.6090404
000010 5a 88 54 be e4 bb e7 3e c6 84 ca 3e 20 a1 d4 be
       -0.20755139 0.45260537 0.39554423 -0.4152918

conv_layers.2.weight f4 [8, 8, 5, 5]
000000 b6 82 e4 bc a5 d4 63 bd 8c d9 0a be 0b 6d 2d be
       -0.02789436 -0.055622716 -0.1355955 -0.16936128
000010 8e 0c 7a bc 0c 0a f2 bc 8f 48 b6 3c c1 a6 ab ba
       -0.015261782 -0.029545806 0.022251396 -0.0013095961
000020 32 4b 5a bc 94 d8 37 3c 97 b9 80 3c 17 17 e9 bc
       -0.013323592 0.01122107 0.015713496 -0.028453393
000030 35 27 d0 bd 60 e1 94 ba 75 74 ea bc a5 60 fd bd
       -0.10163728 -0.0011358671 -0.028619984 -0.12371949
000040 23 df c9 bd 63 b7 0c be 47 ab 5f bc 47 fa ce bd
       -0.09857013 -0.13741831 -0.013651676 -0.1010633
000050 c9 93 e7 bd a6 c6 c9 bd 06 c0 65 bd 0b 6f 38 bd
       -0.11307485 -0.09852342 -0.05609133 -0.045027774
000060 72 33 5b bd 1f ec 4b 3d 44 aa 3c 3e 3f e2 8b bd
       -0.05351586 0.04978573 0.18424326 -0.068302624
000070 81 41 a8 bb 49 ad 5d bd 96 9f 2b bd 68 d8 76 3e
       -0.005134762 -0.054120336 -0.04190024 0.2410599
000080 7e d1 b7 bd f6 5a ea 3c 99 8b 5a 3d 88 78 b6 bd
       -0.08975504 0.028607827 0.053355787 -0.08909708
000090 b7 22 b6 3d d9 43 65 3d bc 6b 47 bc d2 d6 12 3e
       0.0889334 0.055972908 -0.012171682 0.1433976
0000a0 ee 96 60 be d1 a4 d4 bc 3d a8 68 3c 26 89 94 bc
       -0.21932575 -0.025957497 0.014200267 -0.018131804
0000b0 1c 82 c8 3d 62 81 8d bd 98 e7 64 bd d2 68 1f bd
       0.097904414 -0.069094434 -0.055884928 -0.038918324
0000c0 a4 ac a9 3d 80 bb 01 3e 5b 37 9b bd 75 15 89 3c
       0.08284882 0.12669182 -0.075789176 0.016733864
0000d0 16 db 1d be d7 a7 f2 bd f7 50 22 bd 33 a3 1b be
       -0.15415606 -0.11848419 -0.039627995 -0.15198974
0000e0 73 45 b0 bb e6 fa 96 bd 3c 60 2c be 90 68 8a bd
       -0.0053793727 -0.07372074 -0.16833586 -0.06758225
0000f0 96 d0 ec bd f8 36 49 3d 5a 36 3a be 21 f9 5d be
       -0.11563222 0.049124688 -0.18184796 -0.21677066
000100 4e f9 21 be cd 49 4d bd 8a d9 87 bc 6b 88 fc bc
       -0.15817758 -0.05011921 -0.016583223 -0.030826768
000110 89 39 31 be cb 21 a4 bd a3 00 19 3d 82 19 56 bd
       -0.17307104 -0.08014258 0.037354123 -0.05227042
000120 7b 32 d8 3c ac 67 bc bd 5f 69 0b 3d d4 bb 43 bd
       0.026391258 -0.09199461 0.034036037 -0.04778655
000130 e2 f5 5d bd ba d8 62 3e cc 8a 53 bd d9 69 9a bc
       -0.05418957 0.22152987 -0.05164604 -0.0188493
000140 f7 ac ad 3d d9 28 3d bd 5d ff 66 3e 0c 7b 8c bc
       0.08480256 -0.046181533 0.22558351 -0.017148517
000150 a4 cf d0 3d b8 32 19 3e a7 0e 85 bd 67 91 50 bd
       0.10195854 0.14960754 -0.06496935 -0.050919916
000160 27 88 72 3d 90 99 ef bc dd 91 d2 3d 53 68 01 3d
       0.059211876 -0.029248029 0.102817275 0.031593632
000170 66 e1 d6 bd 65 3c 77 bd 0a b4 94 bd 37 4c 7b 3d
       -0.1049221 -0.06036033 -0.07260902 0.06135198
000180 dd 1e 90 3d f1 bb 20 3c 8d 72 13 be 6e 83 b8 3d
       0.07037137 0.009810434 -0.14399166 0.09009443
000190 34 3d 7f bd eb 2b 6b 3c e5 f5 84 bd 1c 03 c9 bd
       -0.062314227 0.014353733 -0.06492213 -0.09815046
0001a0 ae 2f f1 bd f6 a3 af bd 89 d7 97 3c ad 2b e9 bd
       -0.11776672 -0.08576195 0.018535392 -0.113852836
0001b0 3f da 06 be 3c 46 bd bd 71 7f 86 3d 7c ed 82 3d
       -0.13169192 -0.09241912 0.06567276 0.06392953
0001c0 dc d2 59 3d 9e 2d 02 be 1f b4 c4 bd e3 de 7d bd
       0.053179607 -0.12712714 -0.09604668 -0.06198014
0001d0 0d 7d a1 bd ce bb da 3b d3 45 4a 3d 50 b4 67 bd
       -0.0788518 0.00667522 0.049382996 -0.056568444
0001e0 ef f7 ad 3d 44 81 a6 bc 72 11 1f bc 87 fa 8b 3d
       0.08494555 -0.02032531 -0.009708749 0.06834894
0001f0 4c fe 21 3d 21 87 b6 3d 4c ee 21 be 36 50 9a 3d
       0.039549157 0.089124925 -0.1581356 0.0753483
000200 6c 6e a9 bc d2 91 4f be 64 b0 82 3e 49 df bb bd
       -0.020682536 -0.2027047 0.255252 -0.09173448
000210 39 25 0a 3c b3 80 e7 3d 37 6c af 3c a1 10 47 3e
       0.008431726 0.11303844 0.021413906 0.19439937
000220 1c ce b6 3d 56 7b 00 3e 58 97 13 3e a3 c9 58 3c
       0.08926031 0.12547049 0.14413202 0.013231668
000230 80 99 5c 3d 15 cd 13 3d ca 81 f9 bc 8a c1 24 bd
       0.053857327 0.036084253 -0.030457396 -0.040223636
000240 b2 a4 0d 3e 6a f7 5e 3c d7 6b 2d 3c 6a d1 0d 3e
       0.13832358 0.013608793 0.010584793 0.13849416
000250 c2 68 99 bd 64 fa ae 3d 99 f9 54 bd 7f 57 cf bd
       -0.07490684 0.08543852 -0.051995847 -0.101241104
000260 a2 0d 8f bd f3 35 4e 3c 70 89 7f 3b c0 a7 d4 3c
       -0.06985022 0.012586105 0.0038991831 0.025958896
000270 99 ae dc bc 03 09 00 be 4a f4 88 bd 7a a2 d5 3d
       -0.026938723 -0.12503438 -0.066872194 0.104313806
000280 84 31 2a be 27 1c 05 be bf 57 e2 bd 27 c5 49 be
       -0.16620451 -0.1299902 -0.110518925 -0.19704114
000290 45 b5 36 bc e7 36 58 bd 9a e6 4b bd 5e 90 16 be
       -0.011151616 -0.052786734 -0.049780466 -0.14703509
0002a0 45 ab 33 bd ec 82 bf bd 14 03 67 3b 4e 3a 14 be
       -0.043864507 -0.09351143 0.0035249637 -0.14475366
0002b0 50 22 2d be fc f5 cd bd 2c 65 c0 bd ae 34 81 bd
       -0.1690762 -0.100566834 -0.09394297 -0.06308876
0002c0 87 65 e7 bd 68 6e d9 bc 47 4f 46 bd fc 12 04 be
       -0.11298662 -0.026541904 -0.04841545 -0.12897867
0002d0 7b e1 5d bd 30 bf 78 bd 40 45 a4 3a d9 25 44 bc
       -0.054170113 -0.060729206 0.0012532845 -0.011971914
0002e0 60 1c 84 3b 11 6c 16 bb 89 81 4e bd 46 d2 13 3d
       0.004031703 -0.0022952596 -0.050416503 0.036089204
0002f0 6b d1 3a 3c 05 54 25 bc f2 14 55 bc 05 f3 10 bd
       0.011402468 -0.010090833 -0.013005482 -0.03538801
000300 61 2e 62 3d 50 f2 bf bc f1 25 65 3d 0a d6 05 bd
       0.05522001 -0.023430973 0.055944387 -0.032674827
000310 72 df 92 3c e3 58 85 3d 5b f1 f3 3c 92 a6 ac bd
       0.017928813 0.065110944 0.029778173 -0.08430208
000320 3a 1f 13 3d ef 04 88 bc e0 8b b4 bd 72 6e c5 bd
       0.03591845 -0.016603915 -0.088157415 -0.096402064
000330 42 d9 ab 3d 79 03 ff bd 64 ce 19 be 42 e3 04 be
       0.08391048 -0.12451834 -0.15020138 -0.12977317
000340 dc bb 88 bd d4 d4 cf 3d 43 d8 25 be c6 0b f9 bd
       -0.06676456 0.101480156 -0.16195779 -0.12160449
000350 e9 ff df 3d 67 ea e5 3d 73 ef c9 3d 46 cf ba bc
       0.10937483 0.11226349 0.098601244 -0.022803914
000360 cf 8d 01 3e ac 96 4e 3e 70 b1 b5 3d 22 b6 72 bc
       0.12651752 0.20174664 0.08871734 -0.014813932
000370 96 8f 91 3d f4 6f 3c 3e bf 32 3e 3e b8 f4 d4 3b
       0.07107465 0.18402082 0.18574046 0.0064988993
000380 31 35 4b 3d d4 d5 84 3d 71 12 f3 3b 8f 65 74 3d
       0.049611274 0.06486097 0.00741797 0.059667166
000390 da 35 42 be 88 4b 72 be 7a 22 40 3e 2f 94 12 bc
       -0.18965855 -0.23661625 0.18763152 -0.008946463
0003a0 96 df 27 be 60 1a 43 be 80 49 cd bd 63 91 a1 3c
       -0.16393885 -0.1905303 -0.10023785 0.019722646
0003b0 6e ba 2f be e4 bf 0a be d4 7d 9b bc f4 b2 55 3d
       -0.17160961 -0.13549763 -0.018980898 0.052172616
0003c0 ac 6a 5b bd 55 61 bb bd d4 4d 95 3d 15 90 2c 3e
       -0.053568527 -0.09149424 0.07290235 0.16851838
0003d0 34 f3 0c 3d 04 7e 5a 3d 9f df 69 3d 91 c3 3e bb
       0.034411624 0.053342834 0.057098027 -0.0029108266
0003e0 67 fd 5e 3d 1c 2e ea 3a a2 b4 8e bc 1b 41 a7 bd
       0.054440882 0.0017866525 -0.017420117 -0.08166715
0003f0 5e a8 38 3e 55 bb 08 3e fc 65 61 bd 6d d9 67 3c
       0.18032977 0.13352711 -0.0550289 0.014150959

conv_layers.2.bias f4 [8]
000000 e6 51 44 3f 26 d5 55 3c 57 cb 36 bc bb 71 f8 3e
       0.7668747 0.013051307 -0.011156878 0.4852427
000010 4b ca a7 bd 77 64 86 3d 0c 58 42 3e 46 71 d1 3c
       -0.08192881 0.06562131 0.189789 0.025566708

conv_layers.5.weight f4 [16, 8, 5, 5]
000000 e4 1e d7 bb 24 76 0c be 18 ab 49 be 61 43 14 be
       -0.0065649617 -0.13716942 -0.19694173 -0.14478828
000010 da a4 71 3c 77 23 8b bd 90 16 b7 bd d3 8b f4 bd
       0.014748776 -0.06793874 -0.0893985 -0.11940732
000020 4a 05 15 bd 7a 27 4b bd f1 21 94 3d 65 f7 b3 bd
       -0.036381997 -0.049598195 0.07233036 -0.08787421
000030 93 f4 fa 3b ff 0d c3 bc 19 d0 de 3c a4 90 5c 3d
       0.00765855 -0.023810385 0.027198838 0.053848878
000040 f3 9b 7e 3c e9 75 06 bd 8c e8 0a bd 31 fe 04 3e
       0.015540111 -0.03282729 -0.03391318 0.12987591
000050 a2 9d 43 3e e7 d2 d4 3d cd 0f bb 3d b2 50 5e 3d
       0.19103101 0.10391789 0.09133873 0.054276176
000060 52 c2 89 3d 94 ad c8 bd 7d 20 ec bd 12 16 c3 bd
       0.06726517 -0.097987324 -0.11529634 -0.09525694
000070 2e bc 82 3c 71 c7 9b 3b d8 38 c2 bd d8 11 c4 bd
       0.015958872 0.004754 -0.09483498 -0.09573716
000080 3e a9 ec 3c 7f b4 ad 3d 55 0f a6 ba 1d 17 7f 3d
       0.028889295 0.084816925 -0.0012669364 0.062277902
000090 8d cb fb 3d c2 2b 60 3e 65 0a cc 3d f1 52 76 bd
       0.122946836 0.21891692 0.0996292 -0.060137693
0000a0 56 8d 8a 3d 4c 61 2f 3d ad 72 8a 3c 20 6b ef bb
       0.06765239 0.0428174 0.016900385 -0.0073064715
0000b0 e2 4a b2 bd 6f e8 14 be b1 d3 f3 bc ab 8d af bd
       -0.08705689 -0.14541791 -0.029764028 -0.08571943
0000c0 f2 a5 b2 bd 2a 4b 29 be 4d ed ce bb 4e 67 28 3d
       -0.08723058 -0.16532579 -0.0063149096 0.041114144
0000d0 98 ad 8d bc ac 29 20 bd 6a 03 60 3d 1c b7 b7 3c
       -0.01729469 -0.03910224 0.054690756 0.02242618
0000e0 4b 64 41 3b 32 99 5d bc c7 42 80 3c 58 cc 73 3d
       0.0029509242 -0.013525294 0.015656842 0.05952105
0000f0 8d ee 2e 3b 06 f0 34 3a 2b 16 c7 3d 28 ae de 3d
       0.002669248 0.00069022214 0.09721025 0.108730614
000100 19 0a 63 3d b6 1f 1f 3d 97 a5 95 3d f6 a7 97 3d
       0.05542955 0.0388486 0.073069744 0.07405083
000110 9f ee 69 3d 5e 5e a8 bd 20 8b 8c bd 27 f9 b4 3c
       0.057112332 -0.08221124 -0.068624735 0.022091461
000120 59 f4 68 bd 32 06 33 bd ea 93 f0 bc 84 00 72 bd
       -0.056873653 -0.04370708 -0.029367406 -0.059082523
000130 b9 bd 41 bc 80 7f ad bd 74 4b e6 bd 31 90 0c be
       -0.011825019 -0.08471584 -0.1124486 -0.1372688
000140 17 bc 16 bd 21 90 27 bc 16 8e 57 3c 82 88 1a be
       -0.03680047 -0.010227234 0.0131564345 -0.15091136
000150 69 1e ee bd ca 81 9c bd 90 3f 6f bc 42 7f a6 3d
       -0.11626894 -0.07641943 -0.014602557 0.08129741
000160 73 5e ad bd e6 60 aa bd 79 23 a3 3c 70 a8 2c bd
       -0.084652804 -0.08319263 0.019914376 -0.042152822
000170 fa 82 ab 3d 92 c9 3b 3d 76 d5 2d bc d8 ab 98 bc
       0.08374591 0.04584653 -0.010609975 -0.018636629
000180 0d 1c ce bd bd 00 90 3c 30 88 c7 3b fc 2c a6 bd
       -0.10063944 0.017578477 0.006089233 -0.08114049
000190 20 eb 0e 3c b4 bf 36 bd ff 19 be bd 8c 3b d0 bd
       0.00872305 -0.044616416 -0.09282302 -0.10167608
0001a0 55 64 d8 bd 44 d0 21 3e 84 cf f8 3d 6e d7 91 bb
       -0.10566012 0.15802103 0.121489555 -0.00445073
0001b0 84 1c cc bd c3 2b 2c bc a6 56 c8 3d 64 17 45 3e
       -0.099663764 -0.0105084805 0.09782152 0.19247204
0001c0 ac b1 16 3e aa fe e5 3d 5c 4a fe 3c 1b dd a0 3d
       0.14716214 0.11230214 0.031041317 0.078546725
0001d0 21 4c 02 3e 20 53 b6 3d 74 1c ba 3d f9 c7 bf 3c
       0.12724353 0.089025736 0.09087458 0.023410784
0001e0 4e 13 c5 bc e7 4d 19 3d 52 e7 af bd 81 a2 0c be
       -0.024057057 0.03742781 -0.08589043 -0.13733865
0001f0 48 f2 c7 bd e7 24 d6 bc 50 46 02 bd 22 47 80 3b
       -0.09763008 -0.026140643 -0.031805336 0.0039147297
000200 e6 90 be bd 0c 14 a9 bd 61 2d 6f 3d 48 e8 53 3c
       -0.09304981 -0.08255777 0.058392886 0.012933798
000210 ef ee 21 3c 75 57 ae bd 04 5d 30 bd 9e 98 47 3d
       0.009883626 -0.08512775 -0.043057457 0.04872953
000220 d1 40 b8 3d 57 18 4e bd 10 3e 8f 3d 9e 5c 4c 3d
       0.08996738 -0.05031618 0.06994259 0.049893014
000230 16 30 07 3d bb f6 c6 3d 7d f7 b6 3d 1d 5b 30 3e
       0.033004843 0.09715029 0.089339234 0.17222257
000240 57 a5 87 3d 4d 25 04 be c7 dc ea bb e3 2d 04 be
       0.06623333 -0.12904854 -0.007167432 -0.1290813
000250 27 39 b8 bd b1 7e ba bd c2 67 38 bd f6 c6 85 bd
       -0.08995276 -0.09106196 -0.045020826 -0.065320894
000260 f5 17 a0 bc a3 8c ec bd a1 73 65 be 6f b3 ec 3b
       -0.019542674 -0.11550262 -0.2240739 0.0072235386
000270 a0 ab af 3d 82 17 f5 3d 92 8e 00 3d fc a1 26 bd
       0.08577657 0.119673744 0.031385966 -0.040681824
000280 43 33 2f 3b fe a5 53 bb 46 e4 8f 3e d4 eb 27 3e
       0.0026733435 -0.0032294984 0.28103846 0.16398555
000290 d1 ea cc 3c d2 2d a3 bc c3 d0 5b bd 26 44 d2 3d
       0.025014313 -0.01991931 -0.053665888 0.102669045
0002a0 bf 51 c7 3d aa 97 56 bd 4b 71 3e bc 91 51 d7 bd
       0.09732389 -0.052390732 -0.011623691 -0.105136044
0002b0 1f 1c 9a 3d 7c 2d 8e 3d 41 18 a6 3c 76 34 f6 bd
       0.07524895 0.06942269 0.020275237 -0.12021725
0002c0 86 79 37 be e3 99 c1 bd 89 45 de bd a1 24 ea bd
       -0.17917451 -0.0945318 -0.108531065 -0.11432768
0002d0 f9 d5 34 bc c0 37 f3 bb a5 33 c2 bd f9 93 dd bd
       -0.011037343 -0.0074224174 -0.09482507 -0.10819239
0002e0 7a 27 11 3d 7f 94 da 3b d1 7d 9c bc a8 27 70 3d
       0.03543804 0.006670534 -0.019102963 0.05863157
0002f0 63 88 e2 bc 38 af 28 bd 6f d4 a1 bc 7a c0 92 3c
       -0.027652925 -0.041182727 -0.019754617 0.017914046
000300 c4 10 50 3d 95 b5 5b 3d fe ac 62 bd 7e 20 b2 3d
       0.05079724 0.053639967 -0.05534076 0.08697604
000310 43 b9 bc 3c 51 7d f2 3a 0a 5c 7b 3b ff 39 0f be
       0.023037558 0.0018500482 0.003835442 -0.13986968
000320 ff 70 dc bd 14 46 c4 bd df 1b 28 be 69 08 6c 3d
       -0.1076374 -0.09583679 -0.16416882 0.057625208
000330 9b d4 91 3c 96 88 d0 bd 4d c6 29 be 9a a0 3b bd
       0.017801574 -0.10182302 -0.16579552 -0.04580746
000340 0b 3d cc 3d d0 12 74 3d c2 d8 a4 bd b1 df da bd
       0.099725805 0.059588253 -0.08049156 -0.10687197
000350 d1 7f 85 bc cf 75 d9 3d 51 e1 28 3e 6d 95 85 bd
       -0.0162963 0.10618173 0.16492201 -0.06522641
000360 45 7e 84 bd 91 c6 05 3d 26 03 17 3e 2d 84 34 3e
       -0.064693965 0.03266007 0.14747295 0.17628546
000370 f7 dc 22 bc 33 0c 88 bd be e9 5b bc d5 24 93 3d
       -0.009940377 -0.06642952 -0.013422428 0.071847595
000380 ac cc d2 3d 43 6f d3 3d 01 71 42 3c a1 d6 19 be
       0.10292944 0.10323956 0.011867763 -0.1502328
000390 c7 c7 34 be 40 92 bc bd fa 88 c4 3d 02 39 66 3d
       -0.17654334 -0.092075825 0.09596439 0.05620671
0003a0 8d 32 12 bd 9e d8 82 bd 15 7c f9 bd e2 11 0e 3e
       -0.03569274 -0.06388973 -0.1218187 0.13874009
0003b0 77 b0 ae 3d af 07 37 3e b9 e9 21 3e 00 ff 5c bd
       0.08529752 0.17874025 0.15811814 -0.053954124
0003c0 81 e3 a9 bc 60 a2 d6 3c 0a c8 5d 3e 33 a7 c2 3d
       -0.020738365 0.026200473 0.2165834 0.09504547
0003d0 4e 00 a1 3d 7f f5 4f bd 0a 6f 0f 3c 93 d7 bc 3b
       0.07861386 -0.050771233 0.008754501 0.005763003
0003e0 42 98 b9 3d e9 5b 6d 3d 1a ff bf 3c c7 bb bb 3c
       0.09062244 0.05794898 0.023437072 0.022916688
0003f0 1f 97 09 bd fc 92 21 3d e2 a2 1d bc 22 20 3d bd
       -0.033591386 0.039446816 -0.009621354 -0.046173222

conv_layers.5.bias f4 [16]
000000 32 69 15 be d7 73 92 3e e9 91 1e be 66 c9 ac 3e
       -0.1459091 0.28604004 -0.15485348 0.33747405
000010 45 ef 0f 3e 7c ac 08 3f 95 3b 1d bb 70 a0 04 3f
       0.14056118 0.5338819 -0.0023991812 0.5180731
000020 76 3d 03 be cb 99 d8 bd 9e a8 6b 3d 76 ab 98 3e
       -0.12816414 -0.10576209 0.057533853 0.29818314
000030 df 86 11 3e d9 4f 49 3e 96 14 f8 3d db 48 c8 bd
       0.14211605 0.19659366 0.121133015 -0.09779521

conv_layers.7.weight f4 [16, 16, 5, 5]
000000 76 45 a4 3c 8b 94 73 bd dc 8c ef 3c ea c0 63 3d
       0.020052653 -0.059467833 0.029241972 0.0556039
000010 d7 d6 43 3c f8 44 aa 3b a7 f6 94 bd f8 da 1d bd
       0.011953077 0.00519621 -0.07273608 -0.038538903
000020 26 a7 b4 bc 8a c4 a6 bd 8f 0b 3e 3d bd 13 80 bd
       -0.022052359 -0.081429556 0.046397742 -0.06253765
000030 82 4a 46 bd e2 cd de bd 69 af b7 bc 26 9b bd 3c
       -0.0484109 -0.10879113 -0.02242251 0.02314527
000040 61 2c 75 bd e5 22 d2 bc 4b f9 2b bc ee 4a 8d bd
       -0.059856776 -0.025651405 -0.010496448 -0.06899057
000050 25 62 8d bd f2 3c 36 3d 19 a8 c7 3d ac 5e 12 bd
       -0.06903485 0.044491716 0.09748859 -0.035734817
000060 b8 da fd bc a4 00 8b bd 07 d1 21 bd 78 be 7e 3d
       -0.030988082 -0.067872316 -0.039505985 0.062193364
000070 5a c4 d7 3c a2 69 26 bb 7a 05 a8 bd 32 79 39 bd
       0.026338745 -0.0025392552 -0.082041696 -0.045281596
000080 55 f2 c7 bc ea e2 ed bd e8 b4 33 bd 03 5b 18 3c
       -0.024407545 -0.11615546 -0.043873698 0.009299043
000090 69 17 1f 3c bf c1 a2 3d 55 e4 8e 3d 6c 1b 88 3d
       0.009710171 0.079471104 0.06977145 0.06645855
0000a0 15 a3 a6 bc 0b 79 d6 3d bb 51 32 3e 5b 34 a0 3d
       -0.020341435 0.10472306 0.1741399 0.07822486
0000b0 fc 08 49 3d 43 a4 ce 3c 95 9d 4b 3d b2 fb 7c 3b
       0.049080834 0.02522481 0.04971083 0.003860217
0000c0 bd 9f af bc 87 1c 53 bc ad 84 a9 bd b9 44 90 bd
       -0.021438474 -0.012885219 -0.08277259 -0.07044358
0000d0 1b 45 65 bd fc 26 51 bd ab b3 98 bd e8 7e e3 3c
       -0.055974107 -0.05106257 -0.07456144 0.027770475
0000e0 c0 b1 b8 3c ca 42 2c bd 84 26 b8 bd 54 e3 16 be
       0.022545695 -0.042055883 -0.08991721 -0.14735156
0000f0 73 11 82 3c c5 0e c8 bc 63 b9 35 bc 5b 2e 4c bd
       0.015877461 -0.024421105 -0.011091563 -0.049848896
000100 f7 5c 9f bd 2f c8 99 bc c5 57 15 3d 0b 4e 37 3d
       -0.077814035 -0.018772213 0.036460657 0.044752162
000110 4d e6 0c bd 68 65 1b bc 91 11 80 3d 8e d1 8e bd
       -0.03439932 -0.009484626 0.062533505 -0.06973563
000120 a4 85 eb bc 33 ba 93 39 d7 18 d3 bd 2e e4 e2 3b
       -0.028750248 0.00028176754 -0.10307472 0.006924174
000130 a9 cf e7 3b 25 89 71 bd 7c 9e 04 3c 7e e4 98 3d
       0.0070743156 -0.05896868 0.008094426 0.074654564
000140 a8 43 79 bd 0c 41 82 3a 3f 8b 66 3c b2 2c 4b bd
       -0.060855538 0.0009937598 0.014071285 -0.04960317
000150 06 0a dc bc 33 ec e2 bd bf 83 b4 bd fa fb 10 bc
       -0.026860248 -0.11080208 -0.08814191 -0.008849138
000160 37 26 12 3d 0c a4 bc 3c 28 22 5b bd 56 c1 b4 bc
       0.035680976 0.023027442 -0.05349937 -0.022064846
000170 60 c8 ad 3c bb 38 45 3d 88 77 9f 3d 25 7b 57 bd
       0.02121371 0.048149806 0.07786471 -0.052607674
000180 3a 8a a5 bb a8 7e a7 3c 9c e9 7d bd 90 b5 8f bc
       -0.0050518783 0.020446137 -0.061990365 -0.01754263
000190 7e d5 72 bd c1 39 14 3d 46 ed 67 3d c0 ac 45 3d
       -0.059285633 0.03618789 0.056622766 0.04826045
0001a0 9a fd 50 3d 4f 6a fa 3d bb d5 cc 3d a6 86 26 3d
       0.051023103 0.12227308 0.10001703 0.040655755
0001b0 b7 e5 ee bc f7 82 89 bc b8 5d 4c 3d 4b dc f3 3c
       -0.029162271 -0.016786082 0.049894065 0.02976813
0001c0 f4 23 05 3e 54 1e 3e bc 92 a4 6c 3c f7 dd d8 bd
       0.13001996 -0.0116039105 0.0144435335 -0.105892114
0001d0 a2 1c f9 bd 99 ea 8d 3d 4d 39 1d 3e 34 cc c6 3d
       -0.121636644 0.069295116 0.1535389 0.097069174
0001e0 1b 1b 5f 3b f7 2d 2e bd 78 9b ba bd 48 de 43 3d
       0.0034043256 -0.042524304 -0.091116846 0.047819406
0001f0 8c 5b e4 3d 6c 2d 57 bd 3a 80 6e bd 22 d3 d6 bd
       0.11150274 -0.052533552 -0.058227755 -0.10489489
000200 d3 a6 2f be aa 22 20 be ec 2b 4e bd d3 b3 a9 bd
       -0.17153482 -0.15638223 -0.050334856 -0.08286252
000210 e1 59 fa bc 0d be df bd 47 a6 0a be 67 19 ce bc
       -0.030560436 -0.10924921 -0.13539992 -0.025158597
000220 06 c0 44 3d 02 3d c7 3c 8a fd 03 bd 05 8e 1c bd
       0.04803469 0.024321083 -0.032224216 -0.038221378
000230 f7 53 bb bc 56 a6 98 3d 3e 1d 0a bd 34 c8 25 3c
       -0.022867186 0.07453601 -0.033719294 0.010118533
000240 2c 83 1f bd cc e1 98 bd 8c 39 90 3d 30 e0 c9 3d
       -0.038943455 -0.07464942 0.07042226 0.098572135
000250 02 5e c3 3d 5c 96 58 3d d6 38 8d 3c 23 b6 0d 3b
       0.09539415 0.05287777 0.017239016 0.0021623455
000260 17 55 d3 3c d2 7b e5 3b 5b 80 93 b9 f7 62 a9 bc
       0.02579741 0.007003286 -0.00028133657 -0.020677073
000270 ed 68 2b bd 4c 6a a9 bc 15 b3 77 3c 6d 4b ff bc
       -0.041848112 -0.02068057 0.01511838 -0.031163896
000280 ea c5 92 3c c7 42 fb 3c 2e 3c de 3c dd 95 37 bd
       0.017916638 0.03067149 0.027128305 -0.044820655
000290 32 b4 c2 3a 21 11 2b 3d ad 97 68 bd 9a 5d 86 3c
       0.0014854728 0.041764382 -0.056785274 0.016402055
0002a0 5d f1 2d bd 18 60 a4 bd 97 f3 b2 bc 19 77 df bc
       -0.04246651 -0.08026141 -0.021844668 -0.02727847
0002b0 9f 20 23 bd 37 01 b9 3b 3b e8 80 bc 3f 0a 00 3d
       -0.03982603 0.005645897 -0.015735736 0.03125977
0002c0 51 82 45 3c e0 54 24 bd a4 16 4a bd 3d 1b 38 bd
       0.012054996 -0.040120006 -0.049337998 -0.04494785
0002d0 38 3a 92 bd 38 85 af bd 4b ad 77 bb 1c 48 17 ba
       -0.071400106 -0.08570331 -0.00377925 -0.0005770938
0002e0 8d 25 26 3b da 57 84 bd c7 30 17 be 98 e4 9f bd
       0.0025351972 -0.06462069 -0.14764701 -0.07807273
0002f0 5a 5a 0d bd 9f 8a 4d 3d b1 a9 2f bc 29 f8 02 be
       -0.034509994 0.050181028 -0.01072161 -0.12789978
000300 24 83 a6 bd fa c5 5b bd 40 5e 35 3d e3 f2 a3 3d
       -0.08130482 -0.053655602 0.044279337 0.08005311
000310 0d 4b 87 bd 66 80 18 bd dd 1b ff 3c 37 f3 36 3d
       -0.06606112 -0.037231825 0.031141216 0.04466554
000320 47 ee 84 3d ec e4 8a 3c c2 c5 1e 3c d1 33 f5 3c
       0.0649076 0.016954862 0.009690704 0.029931935
000330 8f d5 06 3d dc 14 ac bd 88 c3 4e bd 94 55 3c bd
       0.03291851 -0.08402416 -0.050479442 -0.04598005
000340 f2 bf 86 3b 91 24 2d 3a 4b 2d b7 bd 86 06 ba bd
       0.004112237 0.0006604875 -0.08944186 -0.090832755
000350 71 f3 8f bd 56 57 82 3d a7 14 92 3d 8a f0 82 bd
       -0.07028855 0.06364314 0.07132845 -0.063935354
000360 d6 5e fc bd c1 af 99 bd 46 ec 37 3d d0 b9 72 3d
       -0.12322776 -0.075042255 0.044903062 0.059259236
000370 6e 03 5a bd 77 11 01 bd cf 22 56 bd 9d 35 00 bd
       -0.053225927 -0.031510796 -0.05227929 -0.03130113
000380 82 f5 ed 3a 0d 41 e2 3d 66 da 8d 3c 3a 21 02 bd
       0.0018154832 0.11047564 0.017316055 -0.03176997
000390 dd 2a 19 bc c4 71 18 3c 7a 63 69 3d 87 24 26 3d
       -0.009348598 0.009304468 0.056979634 0.04056218
0003a0 e5 93 4a bc 8b ea 62 bd 26 d3 2b bd 50 a0 59 3d
       -0.012364362 -0.05539946 -0.041949414 0.0531314
0003b0 02 1b 37 bb 71 71 a8 3b bd e2 16 bd bb b7 be bd
       -0.0027939682 0.0051404764 -0.03683733 -0.093123876
0003c0 ce aa 95 3d 7d c2 7a 3d 21 84 93 bd ee 4d 70 bd
       0.07307969 0.061220635 -0.07202936 -0.05866807
0003d0 e8 03 b9 bd 8a 41 a7 bc 8b fa f2 bb 02 db 5a bc
       -0.09033948 -0.020416994 -0.007415121 -0.01335788
0003e0 19 ea 35 bd 3d 5f 3e bd 79 90 d8 3b 3a 32 76 bc
       -0.044412706 -0.046477545 0.0066090194 -0.015026623
0003f0 f0 1b c5 3c ed 5d 89 bc e3 97 c8 bc 82 8a 54 bd
       0.024061173 -0.01676842 -0.024486488 -0.051889904

conv_layers.7.bias f4 [16]
000000 cb f8 00 3d d2 3c 77 3d 23 38 13 be a7 e7 05 3e
       0.031487267 0.060360737 -0.14376883 0.1307665
000010 1d fc a1 3d c4 93 05 3e fe bc 4f 3e f7 2f 07 3e
       0.07909415 0.1304465 0.20286939 0.13201891
000020 fb db b4 bc c4 8e ef bd 66 fd ab 3c aa e7 d3 3e
       -0.022077551 -0.11697152 0.020994853 0.41387683
000030 bd c2 4d bc e6 49 47 3e 0e 63 33 3c 3e d4 aa 3d
       -0.012558636 0.19461784 0.010948909 0.08341263

conv_layers.10.weight f4 [32, 16, 5, 5]
000000 00 ad 5d 3d c6 f1 15 3d 75 63 4c bd 92 f4 33 35
       0.054120064 0.036607526 -0.049899537 6.7038593e-07
000010 36 02 e2 bc 30 ec b9 3d 10 ef 46 3d bd ac 9a bc
       -0.027588945 0.09078252 0.04856783 -0.018881196
000020 e1 ed d7 bc 9e 5c 62 bd 5b c5 2f 3d 84 91 b9 3d
       -0.026358547 -0.055264108 0.042912822 0.09060958
000030 8b af 4a 3d 5e cd ce bc a1 a0 90 bc f9 99 a3 3c
       0.049483817 -0.025244411 -0.017654719 0.01997088
000040 d1 ed bf bb bc 87 28 bc 70 60 cc 3c f6 79 78 bd
       -0.0058572073 -0.010286268 0.024948329 -0.060663186
000050 16 01 94 bd 7d 6a 9a bc 7a 4d 1d bc 5f 7e 20 bd
       -0.072267696 -0.018849606 -0.009600991 -0.039183017
000060 75 cf 44 bd 2f 33 53 bc d8 ba b9 3d f1 19 e7 3d
       -0.04804941 -0.012890621 0.09068841 0.11284245
000070 01 81 4f 3c 7d 84 d8 3c 45 77 14 3d a1 25 8f 3c
       0.012665034 0.026430363 0.036246557 0.017473998
000080 3b 53 f7 3d c4 d3 37 3d 49 cc a5 3c 50 a3 91 bd
       0.12076422 0.04487969 0.020239012 -0.071112275
000090 bd a2 b7 bd b2 5d 12 3c 6f 3c 44 3b e7 95 b4 3b
       -0.08966587 0.0089334715 0.0029943248 0.005511034
0000a0 c7 17 cf bd 9b a2 c1 bd c6 df c4 bc de cf 87 3c
       -0.10111957 -0.09454843 -0.024032485 0.016578611
0000b0 b9 a5 1e bd 4c 6f 0a bc 12 a6 3d bd af ca fb bc
       -0.038732264 -0.008449387 -0.046300955 -0.030736296
0000c0 b4 23 a6 3c dc fb 37 bc 9f af 8d bd db 3f 9e bd
       0.020280696 -0.011229482 -0.06918263 -0.07727023
0000d0 06 a7 88 bb ef 56 5d bd 72 46 d3 bd cd c2 8c 3b
       -0.0041703014 -0.054037984 -0.10316171 0.004295683
0000e0 db c7 a8 bd a6 93 23 bd 15 4e 62 bd 74 7e 93 bd
       -0.082412444 -0.03993573 -0.055250246 -0.072018534
0000f0 1a b0 e2 bc d8 c5 49 bc 9e 25 c5 bd dc 0e be 3c
       -0.027671862 -0.012315236 -0.096263155 0.023200445
000100 8b a2 9e 3d a4 90 81 3d 4e 2d 25 3d 81 5f 01 3d
       0.07745846 0.06326416 0.04032641 0.03158522
000110 7f 21 a7 bc f6 00 20 3d b9 6c 09 3d d7 72 ee bc
       -0.020401714 0.039063416 0.03355095 -0.029107494
000120 93 39 d6 bc ca c5 3a bd 1c 83 de bb 47 91 16 bc
       -0.0261505 -0.045598783 -0.006790532 -0.00918991
000130 cc ac cd bd bb 27 ad bd 0c 4a 88 3c 0f 8d c6 3c
       -0.10042724 -0.084548436 0.01663687 0.024237184
000140 cf 66 e3 bb cc 95 d5 3b 40 1e a9 bc d3 75 20 bd
       -0.006939746 0.0065181013 -0.020644307 -0.039174866
000150 a6 ff 73 bb 58 47 80 bd 56 fd 80 3c 80 07 9f bd
       -0.0037231236 -0.06263608 0.0157458 -0.077651024
000160 54 57 e6 bc 97 8b 78 bd ff 44 8f bd c1 0a 0a bc
       -0.028117813 -0.06068 -0.06995582 -0.0084254155
000170 53 22 9e 3c bc 7e fb 3d ba ec 96 3d 72 dd 38 bd
       0.019303476 0.12280032 0.07369371 -0.04513306
000180 2f 9a a3 bd 23 23 40 bd f4 15 47 3d 6a f8 65 3d
       -0.079883926 -0.04690851 0.04860492 0.05614511
000190 c6 3a 14 bd f3 5e 2e 3d 95 35 72 3d 51 ed 34 3d
       -0.036188863 0.04257102 0.05913313 0.044171635
0001a0 4d e3 12 bd c6 cb 44 bd 67 fa 86 bd 3c 96 5f bd
       -0.035861302 -0.048045896 -0.06590729 -0.054586634
0001b0 33 78 a7 3d fc 71 8b bd 05 40 36 bc 9f e8 9c bd
       0.08177223 -0.0680885 -0.011123662 -0.076615565
0001c0 79 09 c4 bc c9 0c 58 bb 6d 69 5a bd 57 20 0c bd
       -0.023930298 -0.0032966605 -0.053323198 -0.03421053
0001d0 3e b2 9b bd a4 56 fc 3c da 6d 20 3d 79 b2 8f 3d
       -0.076023564 0.030803032 0.039167263 0.07016463
0001e0 3a 88 ac bd 36 9e 0b be 8e dd cc bd 34 74 6e bd
       -0.08424421 -0.13634571 -0.10003196 -0.05821629
0001f0 64 a8 c7 bd 18 52 c8 bc f6 d2 0e bc a5 bb da 3c
       -0.09748915 -0.024453208 -0.008717289 0.026700804
000200 60 af f3 bc 90 45 97 bd 43 91 61 bd 75 9b 9d 3d
       -0.029746711 -0.07386315 -0.055070173 0.07695667
000210 8d 38 b3 3d 9a 98 cf 3d 79 51 8a 3d 6f 31 c1 3c
       0.087510206 0.10136528 0.06753821 0.023583142
000220 f3 d5 30 3d 49 d1 a5 3c e1 b5 85 3d 53 b2 b1 3d
       0.043172788 0.020241397 0.06528831 0.08676591
000230 bd 6d d4 38 d7 98 a0 bd 48 06 07 bd ec 94 1c bb
       0.00010129388 -0.07841652 -0.032964975 -0.0023892475
000240 a2 47 82 3c 53 cb 80 bd de df 70 bd 9b 4c 8f 3d
       0.015903298 -0.06288781 -0.058807246 0.06997033
000250 c0 b3 87 3d 04 f2 54 3d 2c 4f f8 3d e9 b7 29 bd
       0.066260815 0.051988617 0.12124476 -0.041435156
000260 40 c0 b6 3c 8b 0a e6 bd c7 a4 1d bd a4 d9 09 3e
       0.022308469 -0.1123248 -0.038487222 0.1346193
000270 69 be 8c 3d 39 d4 86 3d c1 e1 fe ba 8c 55 80 bd
       0.06872255 0.06583447 -0.0019445942 -0.06266317
000280 9c 4b 1f 3d 0f 56 0a 3e dd 26 0e 3d 1b 4a a4 3c
       0.038890466 0.13509391 0.03470503 0.020054867
000290 ca 91 e9 bd c0 c8 ca bc 83 a2 02 3e 4e ed da bc
       -0.1140476 -0.024753928 0.12757306 -0.026724484
0002a0 23 0b 9b 3b f1 90 4c 3c dd 83 2f 3c d0 29 ce 3c
       0.004731552 0.012485729 0.010712591 0.025166422
0002b0 77 d0 71 3d 93 07 49 3d 60 66 f3 bc b5 f5 b1 3c
       0.0590367 0.04907949 -0.029711902 0.021723608
0002c0 3e 4c fe bd a6 b8 d9 bd 9b 82 33 bd 53 17 54 bc
       -0.12416886 -0.10630922 -0.043825727 -0.012945014
0002d0 7a 47 c2 3c ef 82 79 bd f2 96 c5 bd 88 62 32 bd
       0.023715723 -0.060915884 -0.09647931 -0.043550998
0002e0 0d 29 9c 3c 5c 88 be 3d 4c fd 5a 3d d7 78 46 3d
       0.019062543 0.09303352 0.05346422 0.048455086
0002f0 d5 b1 02 bc 3c e8 dc 3b 52 3f 61 3c 7c 53 b2 3d
       -0.007976969 0.0067415517 0.013748007 0.0870733
000300 a1 54 6a bd fd e9 85 bd 5f 74 dd bd 2d 40 89 3c
       -0.057209615 -0.0653877 -0.10813212 0.016754234
000310 f9 96 6f 3d e2 3c 80 3d fe 0f 72 3d c1 4a dc 39
       0.058493588 0.062616125 0.059097283 0.00042017366
000320 5e b2 81 bd 7b fd 5b bc 40 65 3f bd d0 a0 c4 bb
       -0.06332849 -0.013427134 -0.04672742 -0.0060006157
000330 33 b8 bd ba 27 a7 a2 bd 07 ef d9 bd a8 5b 1f 3d
       -0.0014474451 -0.07942038 -0.10641294 0.03890577
000340 66 6d 0b 3d 9f ed 10 3d e8 78 62 bd 85 73 43 3c
       0.034039877 0.035382863 -0.055291086 0.0119293975
000350 8a 6e 84 3d 88 c4 86 3d 5a 14 a8 3d cb 5b 51 bc
       0.06466396 0.06580454 0.08207007 -0.012778233
000360 31 50 86 bc 59 2e 02 3c c7 28 ca bb db 5d ac bb
       -0.01639566 0.00794562 -0.006169412 -0.005260212
000370 28 5d d4 3c f8 f8 ae bc 7b 5b ab bc 58 2f 87 bc
       0.025923327 -0.021358952 -0.020917645 -0.016502067
000380 f1 6c be 3c b0 00 94 3b 9b 87 ff bc 17 55 b2 bc
       0.023245307 0.0045166835 -0.031192591 -0.02176909
000390 e8 fb 19 bc 7e 0d 94 bd 30 e3 98 bd 4e 01 58 bc
       -0.009398438 -0.07229136 -0.074652076 -0.013183905
0003a0 b0 91 52 bc be 9b 13 bd f1 ea 27 ba 2d 92 b5 bd
       -0.012852117 -0.0360372 -0.00064055534 -0.088657714
0003b0 fa d2 5d bd 96 ce 9f 3c 81 10 e0 3d 9a b4 ac 3d
       -0.05415628 0.019507688 0.10940648 0.084328845
0003c0 fa 5a b1 3c 25 18 a8 bd c0 a2 55 bc 8f 85 c4 3d
       0.021649826 -0.0820773 -0.013039291 0.09595787
0003d0 d2 ac e1 3d 6c ef e1 bc a5 99 10 bd 9e b5 36 3d
       0.11019291 -0.027579986 -0.035302777 0.044606797
0003e0 cd 32 9f bb f8 42 39 3d 9a 27 b8 bc d1 08 c7 3d
       -0.004858351 0.045229882 -0.022479821 0.097184785
0003f0 33 3f 7e 3d 77 31 a9 ba bb 11 d6 bc e1 43 68 bd
       0.06207199 -0.0012908418 -0.026131501 -0.05670536

conv_layers.10.bias f4 [32]
000000 c1 23 e4 bd 0c 29 38 ba 4b b8 ac bd 79 6f 57 3e
       -0.11139632 -0.00070251594 -0.084335886 0.21038617
000010 b6 18 51 3d e3 67 69 3c c9 8a 1c 3c 7b 13 64 3d
       0.051048957 0.01424596 0.009554573 0.05568264
000020 ff 88 a0 3d 8f 2c 6e 3e 71 a6 f6 bc de 97 48 3a
       0.0783863 0.23259185 -0.030108662 0.00076520245
000030 90 a3 1a 3e 6f 3d 8e 3e f8 47 2e be 0a d4 f0 3d
       0.15101457 0.27781245 -0.17019641 0.11759193
000040 5f 20 ae 3e 8b ff 0c 3e dc 8f d2 bd 58 28 e6 3e
       0.34009072 0.13769357 -0.10281345 0.44952655
000050 59 33 82 3e 20 0f 87 3d 7f 62 c9 3c 71 c6 87 bd
       0.254298 0.06594682 0.0245831 -0.066296466
000060 7f d2 18 bd 92 3a 31 bd 91 81 ff bc 8d 9e de bd
       -0.03731012 -0.043268748 -0.031189712 -0.10870085
000070 eb f4 59 3e e5 9e 0a 3d 6e 26 34 3e fb 06 41 bd
       0.21284835 0.03384294 0.17592785 -0.047125798

conv_layers.12.weight f4 [32, 32, 5, 5]
000000 d1 0a 23 bd f2 26 9d bc bc 3a 2a bd cd d9 bc 3d
       -0.039805237 -0.01918361 -0.04155992 0.0922123
000010 06 6b 19 3d 48 a5 89 bd a9 de c8 bc 76 85 67 bd
       0.03745558 -0.06720978 -0.024520235 -0.056523763
000020 11 f5 86 bd bb 41 96 3d 92 cf 35 bd 2d 9c 60 bc
       -0.065897115 0.07336756 -0.044387408 -0.01370911
000030 5f 86 d9 bc f0 a6 50 bd 1f 52 1e bc 02 38 0d bd
       -0.026553331 -0.050940454 -0.009663134 -0.03447724
000040 09 37 69 bd ef 04 ec bb e8 ee 3b bc 83 42 fe bc
       -0.05693725 -0.0072027366 -0.011470534 -0.031037575
000050 fe 00 8d bd 1f 6e 35 3c ec 65 dc 3c 4e c7 91 3d
       -0.06884955 0.011073618 0.026904069 0.071180925
000060 c4 81 4b bd a6 ba 23 3d fd 16 6f bc 3d d2 ab 3b
       -0.0496843 0.039972924 -0.014592883 0.005243568
000070 63 89 7b 3c 92 6a 15 3d dd 66 2e 3c 46 53 7c 3d
       0.01535258 0.036478586 0.010644642 0.061602853
000080 85 5d 19 3d 12 d9 61 bc 7e dd a5 bd 14 7c 94 3d
       0.037442703 -0.013784664 -0.08098887 0.072502285
000090 e3 5d be bc 95 0f 4e bb 32 69 e4 3d ff 2f aa 3d
       -0.023238128 -0.0031442393 0.11152877 0.08309936
0000a0 92 d8 80 bd 10 ac 77 3a 3a 48 83 3c 76 32 53 3d
       -0.062913075 0.00094479416 0.016025651 0.051561795
0000b0 61 90 34 3d 1a d7 38 bd 31 98 40 bd 13 25 88 bd
       0.044083003 -0.04512701 -0.04702014 -0.06647696
0000c0 fd 3c f6 3c 7c 99 d3 3c 2e 88 11 bd 23 5f 1c bd
       0.030058378 0.025830023 -0.03553026 -0.038176667
0000d0 09 41 46 bd 99 5b 62 3c f8 31 59 bd 62 b3 6c bc
       -0.048401866 0.013815784 -0.05302617 -0.014447065
0000e0 54 ba 8b bc 96 c6 02 be 9a 79 81 bd 65 b5 36 3b
       -0.017056622 -0.12771067 -0.06322022 0.0027879116
0000f0 9c 6d ce bb 74 0a 62 3b 77 45 24 bc ac 3e 38 3b
       -0.0062996875 0.0034491094 -0.010026327 0.0028113527
000100 ab 1d 01 3d a6 d7 80 ba a4 b8 1b bc 7f ae df bc
       0.031522434 -0.0009829893 -0.009504471 -0.027304886
000110 8a 44 ba 3c a3 fd e9 bc 88 35 09 3d 13 ab 7e 3d
       0.02273776 -0.028563326 0.033498317 0.062174868
000120 c1 2d 11 3e 5a 75 f8 3d 6c 9f 86 bc 66 d9 8e bd
       0.1417761 0.12131758 -0.01643344 -0.06975059
000130 cf 05 81 bd 0e df 31 bd 96 3f 8e bb c1 3f e2 bc
       -0.06299936 -0.043425612 -0.004341076 -0.02761829
000140 a1 12 47 bc ef 3e ec bc 8e cd 16 bd 32 45 2c 3c
       -0.012150438 -0.028838603 -0.036817126 0.010514544
000150 69 97 f7 bc b5 7a 01 3a d5 1d 5b bb bb b8 29 bc
       -0.030223565 0.0004939244 -0.003343453 -0.010358985
000160 e9 43 9c 3c d3 c1 9b bd 7e 22 7a 3d 16 9e 90 bc
       0.01907535 -0.076053284 0.06106805 -0.017653506
000170 7c 78 a3 bd 07 a4 15 bd de c3 ac bc 17 0a a9 bd
       -0.07981965 -0.03653338 -0.02108949 -0.082538776
000180 cc 67 7e 3c 8b 71 ea 3a 09 62 c7 3c 53 6d 28 bc
       0.015527677 0.0017886622 0.024338739 -0.010279971
000190 52 e2 5a bb 3b 71 09 bd 6c 6e a2 bc 89 4c 98 3d
       -0.0033399058 -0.03355525 -0.019828044 0.07436473
0001a0 22 49 05 bc 80 f0 e6 bd 63 22 26 3c e8 d4 42 bd
       -0.008135112 -0.112763405 0.010140034 -0.047566324
0001b0 5e 22 2f bd ae a7 40 3d 53 5d 18 3d d7 b7 4a 3d
       -0.042757384 0.04703491 0.037198376 0.04949173
0001c0 37 6b 68 bd 06 43 3b bd 83 af 92 3c d5 50 ca 3d
       -0.056742873 -0.045718215 0.017905956 0.09878699
0001d0 c3 22 14 3d dc 47 36 3c 18 0c 8b 3c 17 7e 93 3c
       0.036165964 0.011125531 0.01697354 0.01800446
0001e0 8e 22 fc 3d 56 ed a1 3d 98 4b e0 3b b4 62 a7 3b
       0.12311278 0.07906596 0.006844949 0.005108202
0001f0 6b 7a f2 bc b6 33 39 bd c5 20 f7 bc d9 24 6a bd
       -0.029599389 -0.04521533 -0.030166993 -0.057164047
000200 79 14 f2 bc 4b 7e 5e 3c 01 2a f0 3a 43 9d 92 bc
       -0.029550778 0.013579915 0.0018323065 -0.017897254
000210 d6 ad 47 bd 84 bb 25 bd 01 b8 a6 bd 1b 2b 7f bd
       -0.048749767 -0.040462032 -0.08140565 -0.062296968
000220 6b 8a 6d 3d 3e 3c ab 3d 94 6c 7c bc 20 af 76 3c
       0.057993334 0.083611 -0.015406746 0.0150564015
000230 85 04 8a bd 96 76 8b bd 86 18 9d bd 3a ec 75 3c
       -0.06739143 -0.06809728 -0.07670693 0.015009934
000240 05 a3 07 bd 42 47 8b 3d 53 33 c4 3c 49 84 69 3c
       -0.033114452 0.06800701 0.023950255 0.014252731
000250 40 6f ce 3c 5f 85 06 bc d5 66 8e bb 31 ee 34 bb
       0.025199533 -0.008210509 -0.0043457546 -0.0027607793
000260 35 5a 60 bc 27 c8 24 bd b6 1b 85 bd bf 49 c6 bd
       -0.013693382 -0.040229943 -0.06499426 -0.09682035
000270 87 cb 04 bd fb 43 0a 3d 3c 20 ff bb 0d 23 44 3d
       -0.03242066 0.033756237 -0.007785825 0.04788499
000280 ea 19 85 bc 88 e3 c7 ba 5b 07 22 3d a3 8b 89 3d
       -0.016247708 -0.0015250305 0.039557796 0.06716087
000290 61 50 6a bd 50 61 57 bc 0d 8d 36 3d e3 7f 14 bb
       -0.05720556 -0.01314576 0.04456811 -0.0022659234
0002a0 a4 ec b3 bc 9e 0e 21 bd e8 a2 94 bc 43 9b b6 bc
       -0.021963425 -0.03932058 -0.018144086 -0.022290831
0002b0 4a dc 83 3c b0 dd 51 3c 4d b5 05 bd 5a 52 1f bc
       0.016096253 0.012809202 -0.032643605 -0.009724224
0002c0 83 eb b4 bd c1 eb 01 bd f7 ed 84 3c 80 87 a3 3d
       -0.08833983 -0.031718973 0.016226752 0.07984829
0002d0 0e 43 ba bd 5e 48 07 bc ec 5b 7e bd 62 52 f8 bc
       -0.09094821 -0.008257 -0.062099382 -0.03031272
0002e0 77 33 75 3c e5 cc e0 3c 76 eb 80 3c 51 42 12 bd
       0.014965883 0.027441451 0.015737277 -0.035707776
0002f0 89 a0 4d bd 78 93 44 bd a5 0b a4 3d ce 22 7d 3b
       -0.050201926 -0.0479922 0.080100335 0.0038625482
000300 91 6a f2 3c 11 99 0c 3d 16 8f c6 bb d9 1d 28 3d
       0.02959183 0.034325663 -0.0060595376 0.04104409
000310 4f c0 00 3e 66 8c 0a 3d 5f 85 74 bd 88 1d ac bd
       0.1257336 0.0338253 -0.059697505 -0.0840407
000320 d4 11 aa 3d 14 ae 96 3c ce 5b d3 3b bb b8 0c bd
       0.08304182 0.018393554 0.006450153 -0.03435586
000330 e0 32 21 3c 15 45 2b bd d8 ba ce bd d0 bc dc bc
       0.00983879 -0.04181393 -0.10094231 -0.026945502
000340 53 fd cd 3c 01 7e 32 3d 38 78 04 3d 4d d4 b2 bc
       0.025145208 0.043577198 0.032341212 -0.021829749
000350 89 93 7e bd d7 9e 13 bd db b0 34 bc 4d 02 4d 3c
       -0.06215242 -0.036040153 -0.011028494 0.012512756
000360 ea 85 31 bd 35 6d 90 bd c2 d0 59 bd 6a 31 7c 3d
       -0.0433406 -0.070520796 -0.053177603 0.061570562
000370 b2 c4 20 3d e7 06 e6 bb 9f 87 59 3c 3b 24 1f bd
       0.039250083 -0.007019866 0.0132769635 -0.03885291
000380 97 94 c6 3c 77 0a 88 3d 1e 4d 04 bd 63 c2 1f 3d
       0.024240775 0.06642621 -0.032300107 0.03900374
000390 fa fb aa bc 6f 29 c1 ba 42 29 8e 3d e9 ea 95 bc
       -0.020872105 -0.001473708 0.06941463 -0.01830049
0003a0 67 66 53 bc 3b 99 91 bc 53 7e 3b bd fe 4a 9c bd
       -0.012902833 -0.017773261 -0.04577477 -0.07631491
0003b0 ad f2 a8 bd 25 90 85 bd eb c1 54 3c c7 b2 11 3d
       -0.08249412 -0.06521634 0.012985687 0.035570886
0003c0 d4 9b c3 3c a0 c1 08 bd 46 d3 01 bd 36 f9 06 bb
       0.023878016 -0.03338778 -0.031695627 -0.0020595319
0003d0 f1 57 76 bb 11 38 b2 3d 3a 3c da 3d 8f 19 9e bc
       -0.0037589038 0.087021 0.106560186 -0.019299297
0003e0 64 50 af bc 8c be 67 bd c1 a8 73 bd ad 36 0e bd
       -0.021400638 -0.056578204 -0.05948711 -0.03472011
0003f0 9b f6 8a bd ba b8 26 bb 7a 26 35 3b 9f aa 11 bb
       -0.067853175 -0.0025439695 0.0027641342 -0.0022226942

conv_layers.12.bias f4 [32]
000000 26 4d e2 3d 51 97 e2 bd 9a 04 d0 3d be 24 a7 bd
       0.11049871 -0.110640176 0.10157128 -0.08161305
000010 1f dc c5 3e 36 d0 87 3d a1 79 1b 3c b7 ed 9e bc
       0.38644502 0.0663151 0.009489448 -0.01940046
000020 85 ec 8a 3c b6 41 10 3c 9c d7 4f be 2a d2 0d be
       0.016958484 0.008804729 -0.20297092 -0.13849702
000030 f6 01 83 3d d1 d1 62 bd 22 f7 20 3d c7 ea 1a be
       0.063968584 -0.055375878 0.039298184 -0.15128623
000040 f2 38 95 3e 59 d4 80 3e 0a f3 e0 bd de 3b e3 3d
       0.29145008 0.25162008 -0.10983856 0.11095403
000050 01 32 d3 3e c3 52 ab 3d a8 5d 76 3e 53 13 b1 3b
       0.41249087 0.08365395 0.24059165 0.005403915
000060 c0 28 77 3e dc 48 53 3e e2 b1 b2 3c 9f d2 4a 3e
       0.24136639 0.20633262 0.021813337 0.19806908
000070 6d ec 14 3f 52 08 2b bd 55 8b 1a 3e 59 7f 29 bd
       0.5817326 -0.04175598 0.15092213 -0.041381214
